…
I0113 00:33:26.260578 10595 net.cpp:322] The NetState phase (0) differed from the phase (1) specified by a rule in layer cifar
I0113 00:33:26.260599 10595 net.cpp:322] The NetState phase (0) differed from the phase (1) specified by a rule in layer accuracy
I0113 00:33:26.260807 10595 net.cpp:49] Initializing net from parameters: 
name: "CIFAR10_quick"
state {
  phase: TRAIN
}
layer {
  name: "cifar"
  type: "Data"
  top: "data"
  top: "label"
  include {
    phase: TRAIN
  }
  transform_param {
    mean_file: "mean.binaryproto"
  }
  data_param {
    source: "train_lmdb"
    batch_size: 100
    backend: LMDB
    prefetch: 50
  }
}
layer {
  name: "conv1"
  type: "Convolution"
  bottom: "data"
  top: "conv1"
  param {
    lr_mult: 1
  }
  param {
    lr_mult: 2
  }
  convolution_param {
    num_output: 32
    pad: 2
    kernel_size: 5
    stride: 1
    weight_filler {
      type: "gaussian"
      std: 0.0001
    }
    bias_filler {
      type: "constant"
    }
  }
}
layer {
  name: "pool1"
  type: "Pooling"
  bottom: "conv1"
  top: "pool1"
  pooling_param {
    pool: MAX
    kernel_size: 3
    stride: 2
  }
}
layer {
  name: "relu1"
  type: "ReLU"
  bottom: "pool1"
  top: "pool1"
}
layer {
  name: "conv2"
  type: "Convolution"
  bottom: "pool1"
  top: "conv2"
  param {
    lr_mult: 1
  }
  param {
    lr_mult: 2
  }
  convolution_param {
    num_output: 32
    pad: 2
    kernel_size: 5
    stride: 1
    weight_filler {
      type: "gaussian"
      std: 0.01
    }
    bias_filler {
      type: "constant"
    }
  }
}
layer {
  name: "relu2"
  type: "ReLU"
  bottom: "conv2"
  top: "conv2"
}
layer {
  name: "pool2"
  type: "Pooling"
  bottom: "conv2"
  top: "pool2"
  pooling_param {
    pool: AVE
    kernel_size: 3
    stride: 2
  }
}
layer {
  name: "conv3"
  type: "Convolution"
  bottom: "pool2"
  top: "conv3"
  param {
    lr_mult: 1
  }
  param {
    lr_mult: 2
  }
  convolution_param {
    num_output: 64
    pad: 2
    kernel_size: 5
    stride: 1
    weight_filler {
      type: "gaussian"
      std: 0.01
    }
    bias_filler {
      type: "constant"
    }
  }
}
layer {
  name: "relu3"
  type: "ReLU"
  bottom: "conv3"
  top: "conv3"
}
layer {
  name: "pool3"
  type: "Pooling"
  bottom: "conv3"
  top: "pool3"
  pooling_param {
    pool: AVE
    kernel_size: 3
    stride: 2
  }
}
layer {
  name: "ip1"
  type: "InnerProduct"
  bottom: "pool3"
  top: "ip1"
  param {
    lr_mult: 1
  }
  param {
    lr_mult: 2
  }
  inner_product_param {
    num_output: 64
    weight_filler {
      type: "gaussian"
      std: 0.1
    }
    bias_filler {
      type: "constant"
    }
  }
}
layer {
  name: "ip2"
  type: "InnerProduct"
  bottom: "ip1"
  top: "ip2"
  param {
    lr_mult: 1
  }
  param {
    lr_mult: 2
  }
  inner_product_param {
    num_output: 3
    weight_filler {
      type: "gaussian"
      std: 0.1
    }
    bias_filler {
      type: "constant"
    }
  }
}
layer {
  name: "loss"
  type: "SoftmaxWithLoss"
  bottom: "ip2"
  bottom: "label"
  top: "loss"
}
I0113 00:33:26.260908 10595 layer_factory.hpp:77] Creating layer cifar
I0113 00:33:26.261943 10595 net.cpp:106] Creating Layer cifar
I0113 00:33:26.261957 10595 net.cpp:411] cifar -> data
I0113 00:33:26.261981 10595 net.cpp:411] cifar -> label
I0113 00:33:26.261993 10595 data_transformer.cpp:25] Loading mean file from: mean.binaryproto
I0113 00:33:26.262527 10599 db_lmdb.cpp:38] Opened lmdb train_lmdb
I0113 00:33:26.448336 10595 data_layer.cpp:41] output data size: 100,3,100,100
I0113 00:33:26.484937 10595 net.cpp:150] Setting up cifar
I0113 00:33:26.484972 10595 net.cpp:157] Top shape: 100 3 100 100 (3000000)
I0113 00:33:26.484983 10595 net.cpp:157] Top shape: 100 (100)
I0113 00:33:26.484993 10595 net.cpp:165] Memory required for data: 12000400
I0113 00:33:26.485005 10595 layer_factory.hpp:77] Creating layer conv1
I0113 00:33:26.485034 10595 net.cpp:106] Creating Layer conv1
I0113 00:33:26.485041 10595 net.cpp:454] conv1 <- data
I0113 00:33:26.485059 10595 net.cpp:411] conv1 -> conv1
I0113 00:33:26.490906 10595 net.cpp:150] Setting up conv1
I0113 00:33:26.490921 10595 net.cpp:157] Top shape: 100 32 100 100 (32000000)
I0113 00:33:26.490923 10595 net.cpp:165] Memory required for data: 140000400
I0113 00:33:26.490941 10595 layer_factory.hpp:77] Creating layer pool1
I0113 00:33:26.490952 10595 net.cpp:106] Creating Layer pool1
I0113 00:33:26.490957 10595 net.cpp:454] pool1 <- conv1
I0113 00:33:26.490965 10595 net.cpp:411] pool1 -> pool1
I0113 00:33:26.491001 10595 net.cpp:150] Setting up pool1
I0113 00:33:26.491008 10595 net.cpp:157] Top shape: 100 32 50 50 (8000000)
I0113 00:33:26.491011 10595 net.cpp:165] Memory required for data: 172000400
I0113 00:33:26.491014 10595 layer_factory.hpp:77] Creating layer relu1
I0113 00:33:26.491021 10595 net.cpp:106] Creating Layer relu1
I0113 00:33:26.491024 10595 net.cpp:454] relu1 <- pool1
I0113 00:33:26.491031 10595 net.cpp:397] relu1 -> pool1 (in-place)
I0113 00:33:26.491039 10595 net.cpp:150] Setting up relu1
I0113 00:33:26.491042 10595 net.cpp:157] Top shape: 100 32 50 50 (8000000)
I0113 00:33:26.491044 10595 net.cpp:165] Memory required for data: 204000400
I0113 00:33:26.491047 10595 layer_factory.hpp:77] Creating layer conv2
I0113 00:33:26.491058 10595 net.cpp:106] Creating Layer conv2
I0113 00:33:26.491062 10595 net.cpp:454] conv2 <- pool1
I0113 00:33:26.491070 10595 net.cpp:411] conv2 -> conv2
I0113 00:33:26.494204 10595 net.cpp:150] Setting up conv2
I0113 00:33:26.494215 10595 net.cpp:157] Top shape: 100 32 50 50 (8000000)
I0113 00:33:26.494222 10595 net.cpp:165] Memory required for data: 236000400
I0113 00:33:26.494233 10595 layer_factory.hpp:77] Creating layer relu2
I0113 00:33:26.494240 10595 net.cpp:106] Creating Layer relu2
I0113 00:33:26.494243 10595 net.cpp:454] relu2 <- conv2
I0113 00:33:26.494249 10595 net.cpp:397] relu2 -> conv2 (in-place)
I0113 00:33:26.494256 10595 net.cpp:150] Setting up relu2
I0113 00:33:26.494261 10595 net.cpp:157] Top shape: 100 32 50 50 (8000000)
I0113 00:33:26.494262 10595 net.cpp:165] Memory required for data: 268000400
I0113 00:33:26.494266 10595 layer_factory.hpp:77] Creating layer pool2
I0113 00:33:26.494271 10595 net.cpp:106] Creating Layer pool2
I0113 00:33:26.494274 10595 net.cpp:454] pool2 <- conv2
I0113 00:33:26.494280 10595 net.cpp:411] pool2 -> pool2
I0113 00:33:26.494300 10595 net.cpp:150] Setting up pool2
I0113 00:33:26.494307 10595 net.cpp:157] Top shape: 100 32 25 25 (2000000)
I0113 00:33:26.494309 10595 net.cpp:165] Memory required for data: 276000400
I0113 00:33:26.494313 10595 layer_factory.hpp:77] Creating layer conv3
I0113 00:33:26.494323 10595 net.cpp:106] Creating Layer conv3
I0113 00:33:26.494325 10595 net.cpp:454] conv3 <- pool2
I0113 00:33:26.494333 10595 net.cpp:411] conv3 -> conv3
I0113 00:33:26.501075 10595 net.cpp:150] Setting up conv3
I0113 00:33:26.501101 10595 net.cpp:157] Top shape: 100 64 25 25 (4000000)
I0113 00:33:26.501106 10595 net.cpp:165] Memory required for data: 292000400
I0113 00:33:26.501122 10595 layer_factory.hpp:77] Creating layer relu3
I0113 00:33:26.501137 10595 net.cpp:106] Creating Layer relu3
I0113 00:33:26.501143 10595 net.cpp:454] relu3 <- conv3
I0113 00:33:26.501152 10595 net.cpp:397] relu3 -> conv3 (in-place)
I0113 00:33:26.501160 10595 net.cpp:150] Setting up relu3
I0113 00:33:26.501164 10595 net.cpp:157] Top shape: 100 64 25 25 (4000000)
I0113 00:33:26.501166 10595 net.cpp:165] Memory required for data: 308000400
I0113 00:33:26.501168 10595 layer_factory.hpp:77] Creating layer pool3
I0113 00:33:26.501175 10595 net.cpp:106] Creating Layer pool3
I0113 00:33:26.501178 10595 net.cpp:454] pool3 <- conv3
I0113 00:33:26.501185 10595 net.cpp:411] pool3 -> pool3
I0113 00:33:26.501221 10595 net.cpp:150] Setting up pool3
I0113 00:33:26.501236 10595 net.cpp:157] Top shape: 100 64 12 12 (921600)
I0113 00:33:26.501240 10595 net.cpp:165] Memory required for data: 311686800
I0113 00:33:26.501242 10595 layer_factory.hpp:77] Creating layer ip1
I0113 00:33:26.501255 10595 net.cpp:106] Creating Layer ip1
I0113 00:33:26.501258 10595 net.cpp:454] ip1 <- pool3
I0113 00:33:26.501266 10595 net.cpp:411] ip1 -> ip1
I0113 00:33:26.588755 10595 net.cpp:150] Setting up ip1
I0113 00:33:26.588790 10595 net.cpp:157] Top shape: 100 64 (6400)
I0113 00:33:26.588794 10595 net.cpp:165] Memory required for data: 311712400
I0113 00:33:26.588805 10595 layer_factory.hpp:77] Creating layer ip2
I0113 00:33:26.588822 10595 net.cpp:106] Creating Layer ip2
I0113 00:33:26.588829 10595 net.cpp:454] ip2 <- ip1
I0113 00:33:26.588840 10595 net.cpp:411] ip2 -> ip2
I0113 00:33:26.588953 10595 net.cpp:150] Setting up ip2
I0113 00:33:26.588960 10595 net.cpp:157] Top shape: 100 3 (300)
I0113 00:33:26.588963 10595 net.cpp:165] Memory required for data: 311713600
I0113 00:33:26.588976 10595 layer_factory.hpp:77] Creating layer loss
I0113 00:33:26.588985 10595 net.cpp:106] Creating Layer loss
I0113 00:33:26.588989 10595 net.cpp:454] loss <- ip2
I0113 00:33:26.588995 10595 net.cpp:454] loss <- label
I0113 00:33:26.589001 10595 net.cpp:411] loss -> loss
I0113 00:33:26.589016 10595 layer_factory.hpp:77] Creating layer loss
…
I0113 00:33:26.589676 10595 solver.cpp:181] Creating test net (#0) specified by net file: cifar10_quick_train_test.prototxt
I0113 00:33:26.589722 10595 net.cpp:322] The NetState phase (1) differed from the phase (0) specified by a rule in layer cifar
I0113 00:33:26.589974 10595 net.cpp:49] Initializing net from parameters: 
name: "CIFAR10_quick"
state {
  phase: TEST
}
layer {
  name: "cifar"
  type: "Data"
  top: "data"
  top: "label"
  include {
    phase: TEST
  }
  transform_param {
    mean_file: "mean.binaryproto"
  }
  data_param {
    source: "test_lmdb"
    batch_size: 100
    backend: LMDB
    prefetch: 50
  }
}
layer {
  name: "conv1"
  type: "Convolution"
  bottom: "data"
  top: "conv1"
  param {
    lr_mult: 1
  }
  param {
    lr_mult: 2
  }
  convolution_param {
    num_output: 32
    pad: 2
    kernel_size: 5
    stride: 1
    weight_filler {
      type: "gaussian"
      std: 0.0001
    }
    bias_filler {
      type: "constant"
    }
  }
}
layer {
  name: "pool1"
  type: "Pooling"
  bottom: "conv1"
  top: "pool1"
  pooling_param {
    pool: MAX
    kernel_size: 3
    stride: 2
  }
}
layer {
  name: "relu1"
  type: "ReLU"
  bottom: "pool1"
  top: "pool1"
}
layer {
  name: "conv2"
  type: "Convolution"
  bottom: "pool1"
  top: "conv2"
  param {
    lr_mult: 1
  }
  param {
    lr_mult: 2
  }
  convolution_param {
    num_output: 32
    pad: 2
    kernel_size: 5
    stride: 1
    weight_filler {
      type: "gaussian"
      std: 0.01
    }
    bias_filler {
      type: "constant"
    }
  }
}
layer {
  name: "relu2"
  type: "ReLU"
  bottom: "conv2"
  top: "conv2"
}
layer {
  name: "pool2"
  type: "Pooling"
  bottom: "conv2"
  top: "pool2"
  pooling_param {
    pool: AVE
    kernel_size: 3
    stride: 2
  }
}
layer {
  name: "conv3"
  type: "Convolution"
  bottom: "pool2"
  top: "conv3"
  param {
    lr_mult: 1
  }
  param {
    lr_mult: 2
  }
  convolution_param {
    num_output: 64
    pad: 2
    kernel_size: 5
    stride: 1
    weight_filler {
      type: "gaussian"
      std: 0.01
    }
    bias_filler {
      type: "constant"
    }
  }
}
layer {
  name: "relu3"
  type: "ReLU"
  bottom: "conv3"
  top: "conv3"
}
layer {
  name: "pool3"
  type: "Pooling"
  bottom: "conv3"
  top: "pool3"
  pooling_param {
    pool: AVE
    kernel_size: 3
    stride: 2
  }
}
layer {
  name: "ip1"
  type: "InnerProduct"
  bottom: "pool3"
  top: "ip1"
  param {
    lr_mult: 1
  }
  param {
    lr_mult: 2
  }
  inner_product_param {
    num_output: 64
    weight_filler {
      type: "gaussian"
      std: 0.1
    }
    bias_filler {
      type: "constant"
    }
  }
}
layer {
  name: "ip2"
  type: "InnerProduct"
  bottom: "ip1"
  top: "ip2"
  param {
    lr_mult: 1
  }
  param {
    lr_mult: 2
  }
  inner_product_param {
    num_output: 3
    weight_filler {
      type: "gaussian"
      std: 0.1
    }
    bias_filler {
      type: "constant"
    }
  }
}
layer {
  name: "accuracy"
  type: "Accuracy"
  bottom: "ip2"
  bottom: "label"
  top: "accuracy"
  include {
    phase: TEST
  }
}
layer {
  name: "loss"
  type: "SoftmaxWithLoss"
  bottom: "ip2"
  bottom: "label"
  top: "loss"
}
I0113 00:33:26.590111 10595 layer_factory.hpp:77] Creating layer cifar
I0113 00:33:26.590862 10595 net.cpp:106] Creating Layer cifar
I0113 00:33:26.590875 10595 net.cpp:411] cifar -> data
I0113 00:33:26.590889 10595 net.cpp:411] cifar -> label
I0113 00:33:26.590899 10595 data_transformer.cpp:25] Loading mean file from: mean.binaryproto
I0113 00:33:26.591454 10601 db_lmdb.cpp:38] Opened lmdb test_lmdb
I0113 00:33:26.592000 10595 data_layer.cpp:41] output data size: 100,3,100,100
I0113 00:33:26.608832 10595 net.cpp:150] Setting up cifar
I0113 00:33:26.608880 10595 net.cpp:157] Top shape: 100 3 100 100 (3000000)
I0113 00:33:26.608889 10595 net.cpp:157] Top shape: 100 (100)
I0113 00:33:26.608896 10595 net.cpp:165] Memory required for data: 12000400
I0113 00:33:26.608906 10595 layer_factory.hpp:77] Creating layer label_cifar_1_split
I0113 00:33:26.608932 10595 net.cpp:106] Creating Layer label_cifar_1_split
I0113 00:33:26.608940 10595 net.cpp:454] label_cifar_1_split <- label
I0113 00:33:26.608956 10595 net.cpp:411] label_cifar_1_split -> label_cifar_1_split_0
I0113 00:33:26.608974 10595 net.cpp:411] label_cifar_1_split -> label_cifar_1_split_1
I0113 00:33:26.609041 10595 net.cpp:150] Setting up label_cifar_1_split
I0113 00:33:26.609051 10595 net.cpp:157] Top shape: 100 (100)
I0113 00:33:26.609057 10595 net.cpp:157] Top shape: 100 (100)
I0113 00:33:26.609061 10595 net.cpp:165] Memory required for data: 12001200
I0113 00:33:26.609066 10595 layer_factory.hpp:77] Creating layer conv1
I0113 00:33:26.609089 10595 net.cpp:106] Creating Layer conv1
I0113 00:33:26.609097 10595 net.cpp:454] conv1 <- data
I0113 00:33:26.609109 10595 net.cpp:411] conv1 -> conv1
I0113 00:33:26.614442 10595 net.cpp:150] Setting up conv1
I0113 00:33:26.614490 10595 net.cpp:157] Top shape: 100 32 100 100 (32000000)
I0113 00:33:26.614496 10595 net.cpp:165] Memory required for data: 140001200
I0113 00:33:26.614552 10595 layer_factory.hpp:77] Creating layer pool1
I0113 00:33:26.614575 10595 net.cpp:106] Creating Layer pool1
I0113 00:33:26.614584 10595 net.cpp:454] pool1 <- conv1
I0113 00:33:26.614600 10595 net.cpp:411] pool1 -> pool1
I0113 00:33:26.614663 10595 net.cpp:150] Setting up pool1
I0113 00:33:26.614675 10595 net.cpp:157] Top shape: 100 32 50 50 (8000000)
I0113 00:33:26.614691 10595 net.cpp:165] Memory required for data: 172001200
I0113 00:33:26.614707 10595 layer_factory.hpp:77] Creating layer relu1
I0113 00:33:26.614722 10595 net.cpp:106] Creating Layer relu1
I0113 00:33:26.614727 10595 net.cpp:454] relu1 <- pool1
I0113 00:33:26.614738 10595 net.cpp:397] relu1 -> pool1 (in-place)
I0113 00:33:26.614749 10595 net.cpp:150] Setting up relu1
I0113 00:33:26.614756 10595 net.cpp:157] Top shape: 100 32 50 50 (8000000)
I0113 00:33:26.614760 10595 net.cpp:165] Memory required for data: 204001200
I0113 00:33:26.614765 10595 layer_factory.hpp:77] Creating layer conv2
I0113 00:33:26.614785 10595 net.cpp:106] Creating Layer conv2
I0113 00:33:26.614791 10595 net.cpp:454] conv2 <- pool1
I0113 00:33:26.614804 10595 net.cpp:411] conv2 -> conv2
I0113 00:33:26.619879 10595 net.cpp:150] Setting up conv2
I0113 00:33:26.619922 10595 net.cpp:157] Top shape: 100 32 50 50 (8000000)
I0113 00:33:26.619928 10595 net.cpp:165] Memory required for data: 236001200
I0113 00:33:26.619971 10595 layer_factory.hpp:77] Creating layer relu2
I0113 00:33:26.619990 10595 net.cpp:106] Creating Layer relu2
I0113 00:33:26.619999 10595 net.cpp:454] relu2 <- conv2
I0113 00:33:26.620012 10595 net.cpp:397] relu2 -> conv2 (in-place)
I0113 00:33:26.620028 10595 net.cpp:150] Setting up relu2
I0113 00:33:26.620035 10595 net.cpp:157] Top shape: 100 32 50 50 (8000000)
I0113 00:33:26.620039 10595 net.cpp:165] Memory required for data: 268001200
I0113 00:33:26.620044 10595 layer_factory.hpp:77] Creating layer pool2
I0113 00:33:26.620056 10595 net.cpp:106] Creating Layer pool2
I0113 00:33:26.620061 10595 net.cpp:454] pool2 <- conv2
I0113 00:33:26.620074 10595 net.cpp:411] pool2 -> pool2
I0113 00:33:26.620115 10595 net.cpp:150] Setting up pool2
I0113 00:33:26.620123 10595 net.cpp:157] Top shape: 100 32 25 25 (2000000)
I0113 00:33:26.620128 10595 net.cpp:165] Memory required for data: 276001200
I0113 00:33:26.620133 10595 layer_factory.hpp:77] Creating layer conv3
I0113 00:33:26.620157 10595 net.cpp:106] Creating Layer conv3
I0113 00:33:26.620162 10595 net.cpp:454] conv3 <- pool2
I0113 00:33:26.620177 10595 net.cpp:411] conv3 -> conv3
I0113 00:33:26.629916 10595 net.cpp:150] Setting up conv3
I0113 00:33:26.629963 10595 net.cpp:157] Top shape: 100 64 25 25 (4000000)
I0113 00:33:26.629968 10595 net.cpp:165] Memory required for data: 292001200
I0113 00:33:26.630009 10595 layer_factory.hpp:77] Creating layer relu3
I0113 00:33:26.630028 10595 net.cpp:106] Creating Layer relu3
I0113 00:33:26.630038 10595 net.cpp:454] relu3 <- conv3
I0113 00:33:26.630051 10595 net.cpp:397] relu3 -> conv3 (in-place)
I0113 00:33:26.630067 10595 net.cpp:150] Setting up relu3
I0113 00:33:26.630074 10595 net.cpp:157] Top shape: 100 64 25 25 (4000000)
I0113 00:33:26.630077 10595 net.cpp:165] Memory required for data: 308001200
I0113 00:33:26.630082 10595 layer_factory.hpp:77] Creating layer pool3
I0113 00:33:26.630095 10595 net.cpp:106] Creating Layer pool3
I0113 00:33:26.630100 10595 net.cpp:454] pool3 <- conv3
I0113 00:33:26.630111 10595 net.cpp:411] pool3 -> pool3
I0113 00:33:26.630151 10595 net.cpp:150] Setting up pool3
I0113 00:33:26.630162 10595 net.cpp:157] Top shape: 100 64 12 12 (921600)
I0113 00:33:26.630165 10595 net.cpp:165] Memory required for data: 311687600
I0113 00:33:26.630170 10595 layer_factory.hpp:77] Creating layer ip1
I0113 00:33:26.630184 10595 net.cpp:106] Creating Layer ip1
I0113 00:33:26.630190 10595 net.cpp:454] ip1 <- pool3
I0113 00:33:26.630201 10595 net.cpp:411] ip1 -> ip1
I0113 00:33:26.735813 10595 net.cpp:150] Setting up ip1
I0113 00:33:26.735847 10595 net.cpp:157] Top shape: 100 64 (6400)
I0113 00:33:26.735851 10595 net.cpp:165] Memory required for data: 311713200
I0113 00:33:26.735862 10595 layer_factory.hpp:77] Creating layer ip2
I0113 00:33:26.735878 10595 net.cpp:106] Creating Layer ip2
I0113 00:33:26.735884 10595 net.cpp:454] ip2 <- ip1
I0113 00:33:26.735896 10595 net.cpp:411] ip2 -> ip2
I0113 00:33:26.736012 10595 net.cpp:150] Setting up ip2
I0113 00:33:26.736021 10595 net.cpp:157] Top shape: 100 3 (300)
I0113 00:33:26.736032 10595 net.cpp:165] Memory required for data: 311714400
I0113 00:33:26.736053 10595 layer_factory.hpp:77] Creating layer ip2_ip2_0_split
I0113 00:33:26.736062 10595 net.cpp:106] Creating Layer ip2_ip2_0_split
I0113 00:33:26.736064 10595 net.cpp:454] ip2_ip2_0_split <- ip2
I0113 00:33:26.736073 10595 net.cpp:411] ip2_ip2_0_split -> ip2_ip2_0_split_0
I0113 00:33:26.736080 10595 net.cpp:411] ip2_ip2_0_split -> ip2_ip2_0_split_1
I0113 00:33:26.736107 10595 net.cpp:150] Setting up ip2_ip2_0_split
I0113 00:33:26.736114 10595 net.cpp:157] Top shape: 100 3 (300)
I0113 00:33:26.736119 10595 net.cpp:157] Top shape: 100 3 (300)
I0113 00:33:26.736120 10595 net.cpp:165] Memory required for data: 311716800
I0113 00:33:26.736124 10595 layer_factory.hpp:77] Creating layer accuracy
I0113 00:33:26.736137 10595 net.cpp:106] Creating Layer accuracy
I0113 00:33:26.736141 10595 net.cpp:454] accuracy <- ip2_ip2_0_split_0
I0113 00:33:26.736147 10595 net.cpp:454] accuracy <- label_cifar_1_split_0
I0113 00:33:26.736155 10595 net.cpp:411] accuracy -> accuracy
…
