…
I0113 00:28:42.406826 10452 net.cpp:322] The NetState phase (0) differed from the phase (1) specified by a rule in layer cifar
I0113 00:28:42.406849 10452 net.cpp:322] The NetState phase (0) differed from the phase (1) specified by a rule in layer accuracy
I0113 00:28:42.407058 10452 net.cpp:49] Initializing net from parameters: 
name: "CIFAR10_quick"
state {
  phase: TRAIN
}
layer {
  name: "cifar"
  type: "Data"
  top: "data"
  top: "label"
  include {
    phase: TRAIN
  }
  transform_param {
    mean_file: "mean.binaryproto"
  }
  data_param {
    source: "train_lmdb"
    batch_size: 100
    backend: LMDB
    prefetch: 50
  }
}
layer {
  name: "conv1"
  type: "Convolution"
  bottom: "data"
  top: "conv1"
  param {
    lr_mult: 1
  }
  param {
    lr_mult: 2
  }
  convolution_param {
    num_output: 32
    pad: 2
    kernel_size: 5
    stride: 1
    weight_filler {
      type: "gaussian"
      std: 0.0001
    }
    bias_filler {
      type: "constant"
    }
  }
}
layer {
  name: "pool1"
  type: "Pooling"
  bottom: "conv1"
  top: "pool1"
  pooling_param {
    pool: MAX
    kernel_size: 3
    stride: 2
  }
}
layer {
  name: "relu1"
  type: "ReLU"
  bottom: "pool1"
  top: "pool1"
}
layer {
  name: "conv2"
  type: "Convolution"
  bottom: "pool1"
  top: "conv2"
  param {
    lr_mult: 1
  }
  param {
    lr_mult: 2
  }
  convolution_param {
    num_output: 32
    pad: 2
    kernel_size: 5
    stride: 1
    weight_filler {
      type: "gaussian"
      std: 0.01
    }
    bias_filler {
      type: "constant"
    }
  }
}
layer {
  name: "relu2"
  type: "ReLU"
  bottom: "conv2"
  top: "conv2"
}
layer {
  name: "pool2"
  type: "Pooling"
  bottom: "conv2"
  top: "pool2"
  pooling_param {
    pool: AVE
    kernel_size: 3
    stride: 2
  }
}
layer {
  name: "conv3"
  type: "Convolution"
  bottom: "pool2"
  top: "conv3"
  param {
    lr_mult: 1
  }
  param {
    lr_mult: 2
  }
  convolution_param {
    num_output: 64
    pad: 2
    kernel_size: 5
    stride: 1
    weight_filler {
      type: "gaussian"
      std: 0.01
    }
    bias_filler {
      type: "constant"
    }
  }
}
layer {
  name: "relu3"
  type: "ReLU"
  bottom: "conv3"
  top: "conv3"
}
layer {
  name: "pool3"
  type: "Pooling"
  bottom: "conv3"
  top: "pool3"
  pooling_param {
    pool: AVE
    kernel_size: 3
    stride: 2
  }
}
layer {
  name: "ip1"
  type: "InnerProduct"
  bottom: "pool3"
  top: "ip1"
  param {
    lr_mult: 1
  }
  param {
    lr_mult: 2
  }
  inner_product_param {
    num_output: 64
    weight_filler {
      type: "gaussian"
      std: 0.1
    }
    bias_filler {
      type: "constant"
    }
  }
}
layer {
  name: "ip2"
  type: "InnerProduct"
  bottom: "ip1"
  top: "ip2"
  param {
    lr_mult: 1
  }
  param {
    lr_mult: 2
  }
  inner_product_param {
    num_output: 4
    weight_filler {
      type: "gaussian"
      std: 0.1
    }
    bias_filler {
      type: "constant"
    }
  }
}
layer {
  name: "loss"
  type: "SoftmaxWithLoss"
  bottom: "ip2"
  bottom: "label"
  top: "loss"
}
I0113 00:28:42.407160 10452 layer_factory.hpp:77] Creating layer cifar
I0113 00:28:42.408201 10452 net.cpp:106] Creating Layer cifar
I0113 00:28:42.408221 10452 net.cpp:411] cifar -> data
I0113 00:28:42.408241 10452 net.cpp:411] cifar -> label
I0113 00:28:42.408252 10452 data_transformer.cpp:25] Loading mean file from: mean.binaryproto
I0113 00:28:42.408782 10457 db_lmdb.cpp:38] Opened lmdb train_lmdb
I0113 00:28:42.517094 10452 data_layer.cpp:41] output data size: 100,3,100,100
I0113 00:28:42.541486 10452 net.cpp:150] Setting up cifar
I0113 00:28:42.541520 10452 net.cpp:157] Top shape: 100 3 100 100 (3000000)
I0113 00:28:42.541532 10452 net.cpp:157] Top shape: 100 (100)
I0113 00:28:42.541543 10452 net.cpp:165] Memory required for data: 12000400
I0113 00:28:42.541554 10452 layer_factory.hpp:77] Creating layer conv1
I0113 00:28:42.541582 10452 net.cpp:106] Creating Layer conv1
I0113 00:28:42.541589 10452 net.cpp:454] conv1 <- data
I0113 00:28:42.541604 10452 net.cpp:411] conv1 -> conv1
I0113 00:28:42.544566 10452 net.cpp:150] Setting up conv1
I0113 00:28:42.544582 10452 net.cpp:157] Top shape: 100 32 100 100 (32000000)
I0113 00:28:42.544585 10452 net.cpp:165] Memory required for data: 140000400
I0113 00:28:42.544600 10452 layer_factory.hpp:77] Creating layer pool1
I0113 00:28:42.544612 10452 net.cpp:106] Creating Layer pool1
I0113 00:28:42.544616 10452 net.cpp:454] pool1 <- conv1
I0113 00:28:42.544623 10452 net.cpp:411] pool1 -> pool1
I0113 00:28:42.544656 10452 net.cpp:150] Setting up pool1
I0113 00:28:42.544673 10452 net.cpp:157] Top shape: 100 32 50 50 (8000000)
I0113 00:28:42.544677 10452 net.cpp:165] Memory required for data: 172000400
I0113 00:28:42.544679 10452 layer_factory.hpp:77] Creating layer relu1
I0113 00:28:42.544687 10452 net.cpp:106] Creating Layer relu1
I0113 00:28:42.544690 10452 net.cpp:454] relu1 <- pool1
I0113 00:28:42.544697 10452 net.cpp:397] relu1 -> pool1 (in-place)
I0113 00:28:42.544703 10452 net.cpp:150] Setting up relu1
I0113 00:28:42.544706 10452 net.cpp:157] Top shape: 100 32 50 50 (8000000)
I0113 00:28:42.544718 10452 net.cpp:165] Memory required for data: 204000400
I0113 00:28:42.544720 10452 layer_factory.hpp:77] Creating layer conv2
I0113 00:28:42.544731 10452 net.cpp:106] Creating Layer conv2
I0113 00:28:42.544734 10452 net.cpp:454] conv2 <- pool1
I0113 00:28:42.544740 10452 net.cpp:411] conv2 -> conv2
I0113 00:28:42.548058 10452 net.cpp:150] Setting up conv2
I0113 00:28:42.548069 10452 net.cpp:157] Top shape: 100 32 50 50 (8000000)
I0113 00:28:42.548071 10452 net.cpp:165] Memory required for data: 236000400
I0113 00:28:42.548082 10452 layer_factory.hpp:77] Creating layer relu2
I0113 00:28:42.548089 10452 net.cpp:106] Creating Layer relu2
I0113 00:28:42.548091 10452 net.cpp:454] relu2 <- conv2
I0113 00:28:42.548097 10452 net.cpp:397] relu2 -> conv2 (in-place)
I0113 00:28:42.548104 10452 net.cpp:150] Setting up relu2
I0113 00:28:42.548107 10452 net.cpp:157] Top shape: 100 32 50 50 (8000000)
I0113 00:28:42.548110 10452 net.cpp:165] Memory required for data: 268000400
I0113 00:28:42.548112 10452 layer_factory.hpp:77] Creating layer pool2
I0113 00:28:42.548117 10452 net.cpp:106] Creating Layer pool2
I0113 00:28:42.548120 10452 net.cpp:454] pool2 <- conv2
I0113 00:28:42.548126 10452 net.cpp:411] pool2 -> pool2
I0113 00:28:42.548146 10452 net.cpp:150] Setting up pool2
I0113 00:28:42.548151 10452 net.cpp:157] Top shape: 100 32 25 25 (2000000)
I0113 00:28:42.548153 10452 net.cpp:165] Memory required for data: 276000400
I0113 00:28:42.548156 10452 layer_factory.hpp:77] Creating layer conv3
I0113 00:28:42.548166 10452 net.cpp:106] Creating Layer conv3
I0113 00:28:42.548169 10452 net.cpp:454] conv3 <- pool2
I0113 00:28:42.548178 10452 net.cpp:411] conv3 -> conv3
I0113 00:28:42.555243 10452 net.cpp:150] Setting up conv3
I0113 00:28:42.555268 10452 net.cpp:157] Top shape: 100 64 25 25 (4000000)
I0113 00:28:42.555270 10452 net.cpp:165] Memory required for data: 292000400
I0113 00:28:42.555287 10452 layer_factory.hpp:77] Creating layer relu3
I0113 00:28:42.555302 10452 net.cpp:106] Creating Layer relu3
I0113 00:28:42.555307 10452 net.cpp:454] relu3 <- conv3
I0113 00:28:42.555315 10452 net.cpp:397] relu3 -> conv3 (in-place)
I0113 00:28:42.555323 10452 net.cpp:150] Setting up relu3
I0113 00:28:42.555327 10452 net.cpp:157] Top shape: 100 64 25 25 (4000000)
I0113 00:28:42.555330 10452 net.cpp:165] Memory required for data: 308000400
I0113 00:28:42.555331 10452 layer_factory.hpp:77] Creating layer pool3
I0113 00:28:42.555341 10452 net.cpp:106] Creating Layer pool3
I0113 00:28:42.555343 10452 net.cpp:454] pool3 <- conv3
I0113 00:28:42.555349 10452 net.cpp:411] pool3 -> pool3
I0113 00:28:42.555383 10452 net.cpp:150] Setting up pool3
I0113 00:28:42.555397 10452 net.cpp:157] Top shape: 100 64 12 12 (921600)
I0113 00:28:42.555399 10452 net.cpp:165] Memory required for data: 311686800
I0113 00:28:42.555402 10452 layer_factory.hpp:77] Creating layer ip1
I0113 00:28:42.555414 10452 net.cpp:106] Creating Layer ip1
I0113 00:28:42.555418 10452 net.cpp:454] ip1 <- pool3
I0113 00:28:42.555426 10452 net.cpp:411] ip1 -> ip1
I0113 00:28:42.624972 10452 net.cpp:150] Setting up ip1
I0113 00:28:42.625030 10452 net.cpp:157] Top shape: 100 64 (6400)
I0113 00:28:42.625036 10452 net.cpp:165] Memory required for data: 311712400
I0113 00:28:42.625051 10452 layer_factory.hpp:77] Creating layer ip2
I0113 00:28:42.625072 10452 net.cpp:106] Creating Layer ip2
I0113 00:28:42.625080 10452 net.cpp:454] ip2 <- ip1
I0113 00:28:42.625097 10452 net.cpp:411] ip2 -> ip2
I0113 00:28:42.625224 10452 net.cpp:150] Setting up ip2
I0113 00:28:42.625233 10452 net.cpp:157] Top shape: 100 4 (400)
I0113 00:28:42.625236 10452 net.cpp:165] Memory required for data: 311714000
I0113 00:28:42.625248 10452 layer_factory.hpp:77] Creating layer loss
I0113 00:28:42.625255 10452 net.cpp:106] Creating Layer loss
I0113 00:28:42.625258 10452 net.cpp:454] loss <- ip2
I0113 00:28:42.625263 10452 net.cpp:454] loss <- label
I0113 00:28:42.625269 10452 net.cpp:411] loss -> loss
I0113 00:28:42.625279 10452 layer_factory.hpp:77] Creating layer loss
…
I0113 00:28:42.625916 10452 solver.cpp:181] Creating test net (#0) specified by net file: cifar10_quick_train_test.prototxt
I0113 00:28:42.625962 10452 net.cpp:322] The NetState phase (1) differed from the phase (0) specified by a rule in layer cifar
I0113 00:28:42.626209 10452 net.cpp:49] Initializing net from parameters: 
name: "CIFAR10_quick"
state {
  phase: TEST
}
layer {
  name: "cifar"
  type: "Data"
  top: "data"
  top: "label"
  include {
    phase: TEST
  }
  transform_param {
    mean_file: "mean.binaryproto"
  }
  data_param {
    source: "test_lmdb"
    batch_size: 100
    backend: LMDB
    prefetch: 50
  }
}
layer {
  name: "conv1"
  type: "Convolution"
  bottom: "data"
  top: "conv1"
  param {
    lr_mult: 1
  }
  param {
    lr_mult: 2
  }
  convolution_param {
    num_output: 32
    pad: 2
    kernel_size: 5
    stride: 1
    weight_filler {
      type: "gaussian"
      std: 0.0001
    }
    bias_filler {
      type: "constant"
    }
  }
}
layer {
  name: "pool1"
  type: "Pooling"
  bottom: "conv1"
  top: "pool1"
  pooling_param {
    pool: MAX
    kernel_size: 3
    stride: 2
  }
}
layer {
  name: "relu1"
  type: "ReLU"
  bottom: "pool1"
  top: "pool1"
}
layer {
  name: "conv2"
  type: "Convolution"
  bottom: "pool1"
  top: "conv2"
  param {
    lr_mult: 1
  }
  param {
    lr_mult: 2
  }
  convolution_param {
    num_output: 32
    pad: 2
    kernel_size: 5
    stride: 1
    weight_filler {
      type: "gaussian"
      std: 0.01
    }
    bias_filler {
      type: "constant"
    }
  }
}
layer {
  name: "relu2"
  type: "ReLU"
  bottom: "conv2"
  top: "conv2"
}
layer {
  name: "pool2"
  type: "Pooling"
  bottom: "conv2"
  top: "pool2"
  pooling_param {
    pool: AVE
    kernel_size: 3
    stride: 2
  }
}
layer {
  name: "conv3"
  type: "Convolution"
  bottom: "pool2"
  top: "conv3"
  param {
    lr_mult: 1
  }
  param {
    lr_mult: 2
  }
  convolution_param {
    num_output: 64
    pad: 2
    kernel_size: 5
    stride: 1
    weight_filler {
      type: "gaussian"
      std: 0.01
    }
    bias_filler {
      type: "constant"
    }
  }
}
layer {
  name: "relu3"
  type: "ReLU"
  bottom: "conv3"
  top: "conv3"
}
layer {
  name: "pool3"
  type: "Pooling"
  bottom: "conv3"
  top: "pool3"
  pooling_param {
    pool: AVE
    kernel_size: 3
    stride: 2
  }
}
layer {
  name: "ip1"
  type: "InnerProduct"
  bottom: "pool3"
  top: "ip1"
  param {
    lr_mult: 1
  }
  param {
    lr_mult: 2
  }
  inner_product_param {
    num_output: 64
    weight_filler {
      type: "gaussian"
      std: 0.1
    }
    bias_filler {
      type: "constant"
    }
  }
}
layer {
  name: "ip2"
  type: "InnerProduct"
  bottom: "ip1"
  top: "ip2"
  param {
    lr_mult: 1
  }
  param {
    lr_mult: 2
  }
  inner_product_param {
    num_output: 4
    weight_filler {
      type: "gaussian"
      std: 0.1
    }
    bias_filler {
      type: "constant"
    }
  }
}
layer {
  name: "accuracy"
  type: "Accuracy"
  bottom: "ip2"
  bottom: "label"
  top: "accuracy"
  include {
    phase: TEST
  }
}
layer {
  name: "loss"
  type: "SoftmaxWithLoss"
  bottom: "ip2"
  bottom: "label"
  top: "loss"
}
I0113 00:28:42.626351 10452 layer_factory.hpp:77] Creating layer cifar
I0113 00:28:42.627141 10452 net.cpp:106] Creating Layer cifar
I0113 00:28:42.627151 10452 net.cpp:411] cifar -> data
I0113 00:28:42.627162 10452 net.cpp:411] cifar -> label
I0113 00:28:42.627171 10452 data_transformer.cpp:25] Loading mean file from: mean.binaryproto
I0113 00:28:42.627698 10459 db_lmdb.cpp:38] Opened lmdb test_lmdb
I0113 00:28:42.628201 10452 data_layer.cpp:41] output data size: 100,3,100,100
I0113 00:28:42.646558 10452 net.cpp:150] Setting up cifar
I0113 00:28:42.646596 10452 net.cpp:157] Top shape: 100 3 100 100 (3000000)
I0113 00:28:42.646601 10452 net.cpp:157] Top shape: 100 (100)
I0113 00:28:42.646605 10452 net.cpp:165] Memory required for data: 12000400
I0113 00:28:42.646610 10452 layer_factory.hpp:77] Creating layer label_cifar_1_split
I0113 00:28:42.646630 10452 net.cpp:106] Creating Layer label_cifar_1_split
I0113 00:28:42.646634 10452 net.cpp:454] label_cifar_1_split <- label
I0113 00:28:42.646646 10452 net.cpp:411] label_cifar_1_split -> label_cifar_1_split_0
I0113 00:28:42.646656 10452 net.cpp:411] label_cifar_1_split -> label_cifar_1_split_1
I0113 00:28:42.646702 10452 net.cpp:150] Setting up label_cifar_1_split
I0113 00:28:42.646708 10452 net.cpp:157] Top shape: 100 (100)
I0113 00:28:42.646711 10452 net.cpp:157] Top shape: 100 (100)
I0113 00:28:42.646713 10452 net.cpp:165] Memory required for data: 12001200
I0113 00:28:42.646716 10452 layer_factory.hpp:77] Creating layer conv1
I0113 00:28:42.646733 10452 net.cpp:106] Creating Layer conv1
I0113 00:28:42.646735 10452 net.cpp:454] conv1 <- data
I0113 00:28:42.646744 10452 net.cpp:411] conv1 -> conv1
I0113 00:28:42.647325 10452 net.cpp:150] Setting up conv1
I0113 00:28:42.647339 10452 net.cpp:157] Top shape: 100 32 100 100 (32000000)
I0113 00:28:42.647342 10452 net.cpp:165] Memory required for data: 140001200
I0113 00:28:42.647358 10452 layer_factory.hpp:77] Creating layer pool1
I0113 00:28:42.647372 10452 net.cpp:106] Creating Layer pool1
I0113 00:28:42.647374 10452 net.cpp:454] pool1 <- conv1
I0113 00:28:42.647382 10452 net.cpp:411] pool1 -> pool1
I0113 00:28:42.648813 10452 net.cpp:150] Setting up pool1
I0113 00:28:42.648824 10452 net.cpp:157] Top shape: 100 32 50 50 (8000000)
I0113 00:28:42.648834 10452 net.cpp:165] Memory required for data: 172001200
I0113 00:28:42.648844 10452 layer_factory.hpp:77] Creating layer relu1
I0113 00:28:42.648854 10452 net.cpp:106] Creating Layer relu1
I0113 00:28:42.648856 10452 net.cpp:454] relu1 <- pool1
I0113 00:28:42.648862 10452 net.cpp:397] relu1 -> pool1 (in-place)
I0113 00:28:42.648869 10452 net.cpp:150] Setting up relu1
I0113 00:28:42.648874 10452 net.cpp:157] Top shape: 100 32 50 50 (8000000)
I0113 00:28:42.648875 10452 net.cpp:165] Memory required for data: 204001200
I0113 00:28:42.648877 10452 layer_factory.hpp:77] Creating layer conv2
I0113 00:28:42.648890 10452 net.cpp:106] Creating Layer conv2
I0113 00:28:42.648891 10452 net.cpp:454] conv2 <- pool1
I0113 00:28:42.648898 10452 net.cpp:411] conv2 -> conv2
I0113 00:28:42.652134 10452 net.cpp:150] Setting up conv2
I0113 00:28:42.652166 10452 net.cpp:157] Top shape: 100 32 50 50 (8000000)
I0113 00:28:42.652169 10452 net.cpp:165] Memory required for data: 236001200
I0113 00:28:42.652189 10452 layer_factory.hpp:77] Creating layer relu2
I0113 00:28:42.652202 10452 net.cpp:106] Creating Layer relu2
I0113 00:28:42.652207 10452 net.cpp:454] relu2 <- conv2
I0113 00:28:42.652215 10452 net.cpp:397] relu2 -> conv2 (in-place)
I0113 00:28:42.652230 10452 net.cpp:150] Setting up relu2
I0113 00:28:42.652233 10452 net.cpp:157] Top shape: 100 32 50 50 (8000000)
I0113 00:28:42.652236 10452 net.cpp:165] Memory required for data: 268001200
I0113 00:28:42.652238 10452 layer_factory.hpp:77] Creating layer pool2
I0113 00:28:42.652247 10452 net.cpp:106] Creating Layer pool2
I0113 00:28:42.652251 10452 net.cpp:454] pool2 <- conv2
I0113 00:28:42.652256 10452 net.cpp:411] pool2 -> pool2
I0113 00:28:42.652279 10452 net.cpp:150] Setting up pool2
I0113 00:28:42.652285 10452 net.cpp:157] Top shape: 100 32 25 25 (2000000)
I0113 00:28:42.652287 10452 net.cpp:165] Memory required for data: 276001200
I0113 00:28:42.652290 10452 layer_factory.hpp:77] Creating layer conv3
I0113 00:28:42.652305 10452 net.cpp:106] Creating Layer conv3
I0113 00:28:42.652309 10452 net.cpp:454] conv3 <- pool2
I0113 00:28:42.652317 10452 net.cpp:411] conv3 -> conv3
I0113 00:28:42.658552 10452 net.cpp:150] Setting up conv3
I0113 00:28:42.658586 10452 net.cpp:157] Top shape: 100 64 25 25 (4000000)
I0113 00:28:42.658588 10452 net.cpp:165] Memory required for data: 292001200
I0113 00:28:42.658609 10452 layer_factory.hpp:77] Creating layer relu3
I0113 00:28:42.658624 10452 net.cpp:106] Creating Layer relu3
I0113 00:28:42.658629 10452 net.cpp:454] relu3 <- conv3
I0113 00:28:42.658638 10452 net.cpp:397] relu3 -> conv3 (in-place)
I0113 00:28:42.658646 10452 net.cpp:150] Setting up relu3
I0113 00:28:42.658650 10452 net.cpp:157] Top shape: 100 64 25 25 (4000000)
I0113 00:28:42.658653 10452 net.cpp:165] Memory required for data: 308001200
I0113 00:28:42.658655 10452 layer_factory.hpp:77] Creating layer pool3
I0113 00:28:42.658663 10452 net.cpp:106] Creating Layer pool3
I0113 00:28:42.658666 10452 net.cpp:454] pool3 <- conv3
I0113 00:28:42.658673 10452 net.cpp:411] pool3 -> pool3
I0113 00:28:42.658694 10452 net.cpp:150] Setting up pool3
I0113 00:28:42.658699 10452 net.cpp:157] Top shape: 100 64 12 12 (921600)
I0113 00:28:42.658702 10452 net.cpp:165] Memory required for data: 311687600
I0113 00:28:42.658704 10452 layer_factory.hpp:77] Creating layer ip1
I0113 00:28:42.658715 10452 net.cpp:106] Creating Layer ip1
I0113 00:28:42.658717 10452 net.cpp:454] ip1 <- pool3
I0113 00:28:42.658725 10452 net.cpp:411] ip1 -> ip1
I0113 00:28:42.728866 10452 net.cpp:150] Setting up ip1
I0113 00:28:42.728899 10452 net.cpp:157] Top shape: 100 64 (6400)
I0113 00:28:42.728904 10452 net.cpp:165] Memory required for data: 311713200
I0113 00:28:42.728914 10452 layer_factory.hpp:77] Creating layer ip2
I0113 00:28:42.728930 10452 net.cpp:106] Creating Layer ip2
I0113 00:28:42.728936 10452 net.cpp:454] ip2 <- ip1
I0113 00:28:42.728946 10452 net.cpp:411] ip2 -> ip2
I0113 00:28:42.729055 10452 net.cpp:150] Setting up ip2
I0113 00:28:42.729063 10452 net.cpp:157] Top shape: 100 4 (400)
I0113 00:28:42.729073 10452 net.cpp:165] Memory required for data: 311714800
I0113 00:28:42.729091 10452 layer_factory.hpp:77] Creating layer ip2_ip2_0_split
I0113 00:28:42.729099 10452 net.cpp:106] Creating Layer ip2_ip2_0_split
I0113 00:28:42.729102 10452 net.cpp:454] ip2_ip2_0_split <- ip2
I0113 00:28:42.729109 10452 net.cpp:411] ip2_ip2_0_split -> ip2_ip2_0_split_0
I0113 00:28:42.729115 10452 net.cpp:411] ip2_ip2_0_split -> ip2_ip2_0_split_1
I0113 00:28:42.729140 10452 net.cpp:150] Setting up ip2_ip2_0_split
I0113 00:28:42.729146 10452 net.cpp:157] Top shape: 100 4 (400)
I0113 00:28:42.729148 10452 net.cpp:157] Top shape: 100 4 (400)
I0113 00:28:42.729151 10452 net.cpp:165] Memory required for data: 311718000
I0113 00:28:42.729153 10452 layer_factory.hpp:77] Creating layer accuracy
I0113 00:28:42.729166 10452 net.cpp:106] Creating Layer accuracy
I0113 00:28:42.729169 10452 net.cpp:454] accuracy <- ip2_ip2_0_split_0
I0113 00:28:42.729174 10452 net.cpp:454] accuracy <- label_cifar_1_split_0
I0113 00:28:42.729181 10452 net.cpp:411] accuracy -> accuracy
…
