…
I0113 00:16:14.415824 10128 net.cpp:322] The NetState phase (0) differed from the phase (1) specified by a rule in layer cifar
I0113 00:16:14.415843 10128 net.cpp:322] The NetState phase (0) differed from the phase (1) specified by a rule in layer accuracy
I0113 00:16:14.416018 10128 net.cpp:49] Initializing net from parameters: 
name: "CIFAR10_full"
state {
  phase: TRAIN
}
layer {
  name: "cifar"
  type: "Data"
  top: "data"
  top: "label"
  include {
    phase: TRAIN
  }
  transform_param {
    mean_file: "mean.binaryproto"
  }
  data_param {
    source: "train_lmdb"
    batch_size: 111
    backend: LMDB
  }
}
layer {
  name: "conv1"
  type: "Convolution"
  bottom: "data"
  top: "conv1"
  param {
    lr_mult: 1
  }
  param {
    lr_mult: 2
  }
  convolution_param {
    num_output: 32
    pad: 2
    kernel_size: 5
    stride: 1
    weight_filler {
      type: "gaussian"
      std: 0.0001
    }
    bias_filler {
      type: "constant"
    }
  }
}
layer {
  name: "pool1"
  type: "Pooling"
  bottom: "conv1"
  top: "pool1"
  pooling_param {
    pool: MAX
    kernel_size: 3
    stride: 2
  }
}
layer {
  name: "Sigmoid1"
  type: "Sigmoid"
  bottom: "pool1"
  top: "Sigmoid1"
}
layer {
  name: "conv2"
  type: "Convolution"
  bottom: "Sigmoid1"
  top: "conv2"
  param {
    lr_mult: 1
  }
  param {
    lr_mult: 2
  }
  convolution_param {
    num_output: 32
    pad: 2
    kernel_size: 5
    stride: 1
    weight_filler {
      type: "gaussian"
      std: 0.01
    }
    bias_filler {
      type: "constant"
    }
  }
}
layer {
  name: "Sigmoid2"
  type: "Sigmoid"
  bottom: "conv2"
  top: "Sigmoid2"
}
layer {
  name: "pool2"
  type: "Pooling"
  bottom: "Sigmoid2"
  top: "pool2"
  pooling_param {
    pool: AVE
    kernel_size: 3
    stride: 2
  }
}
layer {
  name: "conv3"
  type: "Convolution"
  bottom: "pool2"
  top: "conv3"
  param {
    lr_mult: 1
  }
  param {
    lr_mult: 1
  }
  convolution_param {
    num_output: 64
    pad: 2
    kernel_size: 5
    stride: 1
    weight_filler {
      type: "gaussian"
      std: 0.01
    }
    bias_filler {
      type: "constant"
    }
  }
}
layer {
  name: "Sigmoid3"
  type: "Sigmoid"
  bottom: "conv3"
  top: "Sigmoid3"
}
layer {
  name: "pool3"
  type: "Pooling"
  bottom: "Sigmoid3"
  top: "pool3"
  pooling_param {
    pool: AVE
    kernel_size: 3
    stride: 2
  }
}
layer {
  name: "ip1"
  type: "InnerProduct"
  bottom: "pool3"
  top: "ip1"
  param {
    lr_mult: 1
    decay_mult: 0
  }
  param {
    lr_mult: 2
    decay_mult: 0
  }
  inner_product_param {
    num_output: 3
    weight_filler {
      type: "gaussian"
      std: 0.01
    }
    bias_filler {
      type: "constant"
    }
  }
}
layer {
  name: "loss"
  type: "SoftmaxWithLoss"
  bottom: "ip1"
  bottom: "label"
  top: "loss"
}
I0113 00:16:14.416112 10128 layer_factory.hpp:77] Creating layer cifar
I0113 00:16:14.416484 10128 net.cpp:106] Creating Layer cifar
I0113 00:16:14.416497 10128 net.cpp:411] cifar -> data
I0113 00:16:14.416515 10128 net.cpp:411] cifar -> label
I0113 00:16:14.416525 10128 data_transformer.cpp:25] Loading mean file from: mean.binaryproto
I0113 00:16:14.417016 10132 db_lmdb.cpp:38] Opened lmdb train_lmdb
I0113 00:16:14.429774 10128 data_layer.cpp:41] output data size: 111,3,100,100
I0113 00:16:14.443603 10128 net.cpp:150] Setting up cifar
I0113 00:16:14.443637 10128 net.cpp:157] Top shape: 111 3 100 100 (3330000)
I0113 00:16:14.443642 10128 net.cpp:157] Top shape: 111 (111)
I0113 00:16:14.443645 10128 net.cpp:165] Memory required for data: 13320444
I0113 00:16:14.443657 10128 layer_factory.hpp:77] Creating layer conv1
I0113 00:16:14.443691 10128 net.cpp:106] Creating Layer conv1
I0113 00:16:14.443704 10128 net.cpp:454] conv1 <- data
I0113 00:16:14.443722 10128 net.cpp:411] conv1 -> conv1
I0113 00:16:14.446070 10128 net.cpp:150] Setting up conv1
I0113 00:16:14.446084 10128 net.cpp:157] Top shape: 111 32 100 100 (35520000)
I0113 00:16:14.446087 10128 net.cpp:165] Memory required for data: 155400444
I0113 00:16:14.446104 10128 layer_factory.hpp:77] Creating layer pool1
I0113 00:16:14.446125 10128 net.cpp:106] Creating Layer pool1
I0113 00:16:14.446128 10128 net.cpp:454] pool1 <- conv1
I0113 00:16:14.446135 10128 net.cpp:411] pool1 -> pool1
I0113 00:16:14.446171 10128 net.cpp:150] Setting up pool1
I0113 00:16:14.446177 10128 net.cpp:157] Top shape: 111 32 50 50 (8880000)
I0113 00:16:14.446180 10128 net.cpp:165] Memory required for data: 190920444
I0113 00:16:14.446183 10128 layer_factory.hpp:77] Creating layer Sigmoid1
I0113 00:16:14.446190 10128 net.cpp:106] Creating Layer Sigmoid1
I0113 00:16:14.446194 10128 net.cpp:454] Sigmoid1 <- pool1
I0113 00:16:14.446200 10128 net.cpp:411] Sigmoid1 -> Sigmoid1
I0113 00:16:14.446221 10128 net.cpp:150] Setting up Sigmoid1
I0113 00:16:14.446229 10128 net.cpp:157] Top shape: 111 32 50 50 (8880000)
I0113 00:16:14.446233 10128 net.cpp:165] Memory required for data: 226440444
I0113 00:16:14.446235 10128 layer_factory.hpp:77] Creating layer conv2
I0113 00:16:14.446246 10128 net.cpp:106] Creating Layer conv2
I0113 00:16:14.446250 10128 net.cpp:454] conv2 <- Sigmoid1
I0113 00:16:14.446269 10128 net.cpp:411] conv2 -> conv2
I0113 00:16:14.449563 10128 net.cpp:150] Setting up conv2
I0113 00:16:14.449573 10128 net.cpp:157] Top shape: 111 32 50 50 (8880000)
I0113 00:16:14.449576 10128 net.cpp:165] Memory required for data: 261960444
I0113 00:16:14.449586 10128 layer_factory.hpp:77] Creating layer Sigmoid2
I0113 00:16:14.449594 10128 net.cpp:106] Creating Layer Sigmoid2
I0113 00:16:14.449597 10128 net.cpp:454] Sigmoid2 <- conv2
I0113 00:16:14.449604 10128 net.cpp:411] Sigmoid2 -> Sigmoid2
I0113 00:16:14.449622 10128 net.cpp:150] Setting up Sigmoid2
I0113 00:16:14.449628 10128 net.cpp:157] Top shape: 111 32 50 50 (8880000)
I0113 00:16:14.449630 10128 net.cpp:165] Memory required for data: 297480444
I0113 00:16:14.449633 10128 layer_factory.hpp:77] Creating layer pool2
I0113 00:16:14.449641 10128 net.cpp:106] Creating Layer pool2
I0113 00:16:14.449645 10128 net.cpp:454] pool2 <- Sigmoid2
I0113 00:16:14.449651 10128 net.cpp:411] pool2 -> pool2
I0113 00:16:14.449671 10128 net.cpp:150] Setting up pool2
I0113 00:16:14.449676 10128 net.cpp:157] Top shape: 111 32 25 25 (2220000)
I0113 00:16:14.449679 10128 net.cpp:165] Memory required for data: 306360444
I0113 00:16:14.449681 10128 layer_factory.hpp:77] Creating layer conv3
I0113 00:16:14.449692 10128 net.cpp:106] Creating Layer conv3
I0113 00:16:14.449695 10128 net.cpp:454] conv3 <- pool2
I0113 00:16:14.449703 10128 net.cpp:411] conv3 -> conv3
I0113 00:16:14.456569 10128 net.cpp:150] Setting up conv3
I0113 00:16:14.456589 10128 net.cpp:157] Top shape: 111 64 25 25 (4440000)
I0113 00:16:14.456593 10128 net.cpp:165] Memory required for data: 324120444
I0113 00:16:14.456606 10128 layer_factory.hpp:77] Creating layer Sigmoid3
I0113 00:16:14.456620 10128 net.cpp:106] Creating Layer Sigmoid3
I0113 00:16:14.456624 10128 net.cpp:454] Sigmoid3 <- conv3
I0113 00:16:14.456632 10128 net.cpp:411] Sigmoid3 -> Sigmoid3
I0113 00:16:14.456657 10128 net.cpp:150] Setting up Sigmoid3
I0113 00:16:14.456663 10128 net.cpp:157] Top shape: 111 64 25 25 (4440000)
I0113 00:16:14.456665 10128 net.cpp:165] Memory required for data: 341880444
I0113 00:16:14.456668 10128 layer_factory.hpp:77] Creating layer pool3
I0113 00:16:14.456678 10128 net.cpp:106] Creating Layer pool3
I0113 00:16:14.456682 10128 net.cpp:454] pool3 <- Sigmoid3
I0113 00:16:14.456688 10128 net.cpp:411] pool3 -> pool3
I0113 00:16:14.456709 10128 net.cpp:150] Setting up pool3
I0113 00:16:14.456715 10128 net.cpp:157] Top shape: 111 64 12 12 (1022976)
I0113 00:16:14.456717 10128 net.cpp:165] Memory required for data: 345972348
I0113 00:16:14.456727 10128 layer_factory.hpp:77] Creating layer ip1
I0113 00:16:14.456746 10128 net.cpp:106] Creating Layer ip1
I0113 00:16:14.456750 10128 net.cpp:454] ip1 <- pool3
I0113 00:16:14.456758 10128 net.cpp:411] ip1 -> ip1
I0113 00:16:14.459925 10128 net.cpp:150] Setting up ip1
I0113 00:16:14.459934 10128 net.cpp:157] Top shape: 111 3 (333)
I0113 00:16:14.459938 10128 net.cpp:165] Memory required for data: 345973680
I0113 00:16:14.459944 10128 layer_factory.hpp:77] Creating layer loss
I0113 00:16:14.459952 10128 net.cpp:106] Creating Layer loss
I0113 00:16:14.459955 10128 net.cpp:454] loss <- ip1
I0113 00:16:14.459960 10128 net.cpp:454] loss <- label
I0113 00:16:14.459966 10128 net.cpp:411] loss -> loss
I0113 00:16:14.459976 10128 layer_factory.hpp:77] Creating layer loss
…
I0113 00:16:14.460521 10128 solver.cpp:181] Creating test net (#0) specified by net file: cifar10_full_sigmoid_train_test.prototxt
I0113 00:16:14.460567 10128 net.cpp:322] The NetState phase (1) differed from the phase (0) specified by a rule in layer cifar
I0113 00:16:14.460775 10128 net.cpp:49] Initializing net from parameters: 
name: "CIFAR10_full"
state {
  phase: TEST
}
layer {
  name: "cifar"
  type: "Data"
  top: "data"
  top: "label"
  include {
    phase: TEST
  }
  transform_param {
    mean_file: "mean.binaryproto"
  }
  data_param {
    source: "test_lmdb"
    batch_size: 1000
    backend: LMDB
  }
}
layer {
  name: "conv1"
  type: "Convolution"
  bottom: "data"
  top: "conv1"
  param {
    lr_mult: 1
  }
  param {
    lr_mult: 2
  }
  convolution_param {
    num_output: 32
    pad: 2
    kernel_size: 5
    stride: 1
    weight_filler {
      type: "gaussian"
      std: 0.0001
    }
    bias_filler {
      type: "constant"
    }
  }
}
layer {
  name: "pool1"
  type: "Pooling"
  bottom: "conv1"
  top: "pool1"
  pooling_param {
    pool: MAX
    kernel_size: 3
    stride: 2
  }
}
layer {
  name: "Sigmoid1"
  type: "Sigmoid"
  bottom: "pool1"
  top: "Sigmoid1"
}
layer {
  name: "conv2"
  type: "Convolution"
  bottom: "Sigmoid1"
  top: "conv2"
  param {
    lr_mult: 1
  }
  param {
    lr_mult: 2
  }
  convolution_param {
    num_output: 32
    pad: 2
    kernel_size: 5
    stride: 1
    weight_filler {
      type: "gaussian"
      std: 0.01
    }
    bias_filler {
      type: "constant"
    }
  }
}
layer {
  name: "Sigmoid2"
  type: "Sigmoid"
  bottom: "conv2"
  top: "Sigmoid2"
}
layer {
  name: "pool2"
  type: "Pooling"
  bottom: "Sigmoid2"
  top: "pool2"
  pooling_param {
    pool: AVE
    kernel_size: 3
    stride: 2
  }
}
layer {
  name: "conv3"
  type: "Convolution"
  bottom: "pool2"
  top: "conv3"
  param {
    lr_mult: 1
  }
  param {
    lr_mult: 1
  }
  convolution_param {
    num_output: 64
    pad: 2
    kernel_size: 5
    stride: 1
    weight_filler {
      type: "gaussian"
      std: 0.01
    }
    bias_filler {
      type: "constant"
    }
  }
}
layer {
  name: "Sigmoid3"
  type: "Sigmoid"
  bottom: "conv3"
  top: "Sigmoid3"
}
layer {
  name: "pool3"
  type: "Pooling"
  bottom: "Sigmoid3"
  top: "pool3"
  pooling_param {
    pool: AVE
    kernel_size: 3
    stride: 2
  }
}
layer {
  name: "ip1"
  type: "InnerProduct"
  bottom: "pool3"
  top: "ip1"
  param {
    lr_mult: 1
    decay_mult: 0
  }
  param {
    lr_mult: 2
    decay_mult: 0
  }
  inner_product_param {
    num_output: 3
    weight_filler {
      type: "gaussian"
      std: 0.01
    }
    bias_filler {
      type: "constant"
    }
  }
}
layer {
  name: "accuracy"
  type: "Accuracy"
  bottom: "ip1"
  bottom: "label"
  top: "accuracy"
  include {
    phase: TEST
  }
}
layer {
  name: "loss"
  type: "SoftmaxWithLoss"
  bottom: "ip1"
  bottom: "label"
  top: "loss"
}
I0113 00:16:14.460887 10128 layer_factory.hpp:77] Creating layer cifar
I0113 00:16:14.461462 10128 net.cpp:106] Creating Layer cifar
I0113 00:16:14.461474 10128 net.cpp:411] cifar -> data
I0113 00:16:14.461485 10128 net.cpp:411] cifar -> label
I0113 00:16:14.461494 10128 data_transformer.cpp:25] Loading mean file from: mean.binaryproto
I0113 00:16:14.462033 10134 db_lmdb.cpp:38] Opened lmdb test_lmdb
I0113 00:16:14.462496 10128 data_layer.cpp:41] output data size: 1000,3,100,100
I0113 00:16:14.576699 10128 net.cpp:150] Setting up cifar
I0113 00:16:14.576736 10128 net.cpp:157] Top shape: 1000 3 100 100 (30000000)
I0113 00:16:14.576741 10128 net.cpp:157] Top shape: 1000 (1000)
I0113 00:16:14.576743 10128 net.cpp:165] Memory required for data: 120004000
I0113 00:16:14.576751 10128 layer_factory.hpp:77] Creating layer label_cifar_1_split
I0113 00:16:14.576771 10128 net.cpp:106] Creating Layer label_cifar_1_split
I0113 00:16:14.576776 10128 net.cpp:454] label_cifar_1_split <- label
I0113 00:16:14.576787 10128 net.cpp:411] label_cifar_1_split -> label_cifar_1_split_0
I0113 00:16:14.576798 10128 net.cpp:411] label_cifar_1_split -> label_cifar_1_split_1
I0113 00:16:14.576844 10128 net.cpp:150] Setting up label_cifar_1_split
I0113 00:16:14.576850 10128 net.cpp:157] Top shape: 1000 (1000)
I0113 00:16:14.576854 10128 net.cpp:157] Top shape: 1000 (1000)
I0113 00:16:14.576856 10128 net.cpp:165] Memory required for data: 120012000
I0113 00:16:14.576859 10128 layer_factory.hpp:77] Creating layer conv1
I0113 00:16:14.576875 10128 net.cpp:106] Creating Layer conv1
I0113 00:16:14.576879 10128 net.cpp:454] conv1 <- data
I0113 00:16:14.576886 10128 net.cpp:411] conv1 -> conv1
I0113 00:16:14.577412 10128 net.cpp:150] Setting up conv1
I0113 00:16:14.577424 10128 net.cpp:157] Top shape: 1000 32 100 100 (320000000)
I0113 00:16:14.577426 10128 net.cpp:165] Memory required for data: 1400012000
I0113 00:16:14.577441 10128 layer_factory.hpp:77] Creating layer pool1
I0113 00:16:14.577452 10128 net.cpp:106] Creating Layer pool1
I0113 00:16:14.577455 10128 net.cpp:454] pool1 <- conv1
I0113 00:16:14.577462 10128 net.cpp:411] pool1 -> pool1
I0113 00:16:14.586941 10128 net.cpp:150] Setting up pool1
I0113 00:16:14.586976 10128 net.cpp:157] Top shape: 1000 32 50 50 (80000000)
I0113 00:16:14.586978 10128 net.cpp:165] Memory required for data: 1720012000
I0113 00:16:14.586983 10128 layer_factory.hpp:77] Creating layer Sigmoid1
I0113 00:16:14.587002 10128 net.cpp:106] Creating Layer Sigmoid1
I0113 00:16:14.587007 10128 net.cpp:454] Sigmoid1 <- pool1
I0113 00:16:14.587020 10128 net.cpp:411] Sigmoid1 -> Sigmoid1
I0113 00:16:14.587044 10128 net.cpp:150] Setting up Sigmoid1
I0113 00:16:14.587050 10128 net.cpp:157] Top shape: 1000 32 50 50 (80000000)
I0113 00:16:14.587052 10128 net.cpp:165] Memory required for data: 2040012000
I0113 00:16:14.587055 10128 layer_factory.hpp:77] Creating layer conv2
I0113 00:16:14.587070 10128 net.cpp:106] Creating Layer conv2
I0113 00:16:14.587074 10128 net.cpp:454] conv2 <- Sigmoid1
I0113 00:16:14.587081 10128 net.cpp:411] conv2 -> conv2
I0113 00:16:14.590175 10128 net.cpp:150] Setting up conv2
I0113 00:16:14.590207 10128 net.cpp:157] Top shape: 1000 32 50 50 (80000000)
I0113 00:16:14.590224 10128 net.cpp:165] Memory required for data: 2360012000
I0113 00:16:14.590250 10128 layer_factory.hpp:77] Creating layer Sigmoid2
I0113 00:16:14.590265 10128 net.cpp:106] Creating Layer Sigmoid2
I0113 00:16:14.590270 10128 net.cpp:454] Sigmoid2 <- conv2
I0113 00:16:14.590279 10128 net.cpp:411] Sigmoid2 -> Sigmoid2
I0113 00:16:14.590306 10128 net.cpp:150] Setting up Sigmoid2
I0113 00:16:14.590312 10128 net.cpp:157] Top shape: 1000 32 50 50 (80000000)
I0113 00:16:14.590314 10128 net.cpp:165] Memory required for data: 2680012000
I0113 00:16:14.590317 10128 layer_factory.hpp:77] Creating layer pool2
I0113 00:16:14.590325 10128 net.cpp:106] Creating Layer pool2
I0113 00:16:14.590328 10128 net.cpp:454] pool2 <- Sigmoid2
I0113 00:16:14.590335 10128 net.cpp:411] pool2 -> pool2
I0113 00:16:14.590356 10128 net.cpp:150] Setting up pool2
I0113 00:16:14.590361 10128 net.cpp:157] Top shape: 1000 32 25 25 (20000000)
I0113 00:16:14.590364 10128 net.cpp:165] Memory required for data: 2760012000
I0113 00:16:14.590368 10128 layer_factory.hpp:77] Creating layer conv3
I0113 00:16:14.590384 10128 net.cpp:106] Creating Layer conv3
I0113 00:16:14.590387 10128 net.cpp:454] conv3 <- pool2
I0113 00:16:14.590395 10128 net.cpp:411] conv3 -> conv3
I0113 00:16:14.596328 10128 net.cpp:150] Setting up conv3
I0113 00:16:14.596361 10128 net.cpp:157] Top shape: 1000 64 25 25 (40000000)
I0113 00:16:14.596364 10128 net.cpp:165] Memory required for data: 2920012000
I0113 00:16:14.596385 10128 layer_factory.hpp:77] Creating layer Sigmoid3
I0113 00:16:14.596397 10128 net.cpp:106] Creating Layer Sigmoid3
I0113 00:16:14.596403 10128 net.cpp:454] Sigmoid3 <- conv3
I0113 00:16:14.596412 10128 net.cpp:411] Sigmoid3 -> Sigmoid3
I0113 00:16:14.596437 10128 net.cpp:150] Setting up Sigmoid3
I0113 00:16:14.596443 10128 net.cpp:157] Top shape: 1000 64 25 25 (40000000)
I0113 00:16:14.596446 10128 net.cpp:165] Memory required for data: 3080012000
I0113 00:16:14.596448 10128 layer_factory.hpp:77] Creating layer pool3
I0113 00:16:14.596457 10128 net.cpp:106] Creating Layer pool3
I0113 00:16:14.596459 10128 net.cpp:454] pool3 <- Sigmoid3
I0113 00:16:14.596467 10128 net.cpp:411] pool3 -> pool3
I0113 00:16:14.596485 10128 net.cpp:150] Setting up pool3
I0113 00:16:14.596491 10128 net.cpp:157] Top shape: 1000 64 12 12 (9216000)
I0113 00:16:14.596493 10128 net.cpp:165] Memory required for data: 3116876000
I0113 00:16:14.596496 10128 layer_factory.hpp:77] Creating layer ip1
I0113 00:16:14.596506 10128 net.cpp:106] Creating Layer ip1
I0113 00:16:14.596509 10128 net.cpp:454] ip1 <- pool3
I0113 00:16:14.596516 10128 net.cpp:411] ip1 -> ip1
I0113 00:16:14.599740 10128 net.cpp:150] Setting up ip1
I0113 00:16:14.599772 10128 net.cpp:157] Top shape: 1000 3 (3000)
I0113 00:16:14.599776 10128 net.cpp:165] Memory required for data: 3116888000
I0113 00:16:14.599786 10128 layer_factory.hpp:77] Creating layer ip1_ip1_0_split
I0113 00:16:14.599799 10128 net.cpp:106] Creating Layer ip1_ip1_0_split
I0113 00:16:14.599804 10128 net.cpp:454] ip1_ip1_0_split <- ip1
I0113 00:16:14.599815 10128 net.cpp:411] ip1_ip1_0_split -> ip1_ip1_0_split_0
I0113 00:16:14.599825 10128 net.cpp:411] ip1_ip1_0_split -> ip1_ip1_0_split_1
I0113 00:16:14.599853 10128 net.cpp:150] Setting up ip1_ip1_0_split
I0113 00:16:14.599859 10128 net.cpp:157] Top shape: 1000 3 (3000)
I0113 00:16:14.599862 10128 net.cpp:157] Top shape: 1000 3 (3000)
I0113 00:16:14.599864 10128 net.cpp:165] Memory required for data: 3116912000
I0113 00:16:14.599867 10128 layer_factory.hpp:77] Creating layer accuracy
I0113 00:16:14.599880 10128 net.cpp:106] Creating Layer accuracy
I0113 00:16:14.599884 10128 net.cpp:454] accuracy <- ip1_ip1_0_split_0
I0113 00:16:14.599889 10128 net.cpp:454] accuracy <- label_cifar_1_split_0
I0113 00:16:14.599896 10128 net.cpp:411] accuracy -> accuracy
…
