…
I0113 13:58:52.299841 28435 net.cpp:322] The NetState phase (0) differed from the phase (1) specified by a rule in layer cifar
I0113 13:58:52.299860 28435 net.cpp:322] The NetState phase (0) differed from the phase (1) specified by a rule in layer accuracy
I0113 13:58:52.300087 28435 net.cpp:49] Initializing net from parameters: 
name: "CIFAR10_full"
state {
  phase: TRAIN
}
layer {
  name: "cifar"
  type: "Data"
  top: "data"
  top: "label"
  include {
    phase: TRAIN
  }
  transform_param {
    mean_file: "mean.binaryproto"
  }
  data_param {
    source: "train_lmdb"
    batch_size: 100
    backend: LMDB
    prefetch: 50
  }
}
layer {
  name: "conv1"
  type: "Convolution"
  bottom: "data"
  top: "conv1"
  param {
    lr_mult: 1
  }
  param {
    lr_mult: 2
  }
  convolution_param {
    num_output: 32
    pad: 2
    kernel_size: 5
    stride: 1
    weight_filler {
      type: "gaussian"
      std: 0.0001
    }
    bias_filler {
      type: "constant"
    }
  }
}
layer {
  name: "pool1"
  type: "Pooling"
  bottom: "conv1"
  top: "pool1"
  pooling_param {
    pool: MAX
    kernel_size: 3
    stride: 2
  }
}
layer {
  name: "relu1"
  type: "ReLU"
  bottom: "pool1"
  top: "pool1"
}
layer {
  name: "norm1"
  type: "LRN"
  bottom: "pool1"
  top: "norm1"
  lrn_param {
    local_size: 3
    alpha: 5e-05
    beta: 0.75
    norm_region: WITHIN_CHANNEL
  }
}
layer {
  name: "conv2"
  type: "Convolution"
  bottom: "norm1"
  top: "conv2"
  param {
    lr_mult: 1
  }
  param {
    lr_mult: 2
  }
  convolution_param {
    num_output: 32
    pad: 2
    kernel_size: 5
    stride: 1
    weight_filler {
      type: "gaussian"
      std: 0.01
    }
    bias_filler {
      type: "constant"
    }
  }
}
layer {
  name: "relu2"
  type: "ReLU"
  bottom: "conv2"
  top: "conv2"
}
layer {
  name: "pool2"
  type: "Pooling"
  bottom: "conv2"
  top: "pool2"
  pooling_param {
    pool: AVE
    kernel_size: 3
    stride: 2
  }
}
layer {
  name: "norm2"
  type: "LRN"
  bottom: "pool2"
  top: "norm2"
  lrn_param {
    local_size: 3
    alpha: 5e-05
    beta: 0.75
    norm_region: WITHIN_CHANNEL
  }
}
layer {
  name: "conv3"
  type: "Convolution"
  bottom: "norm2"
  top: "conv3"
  convolution_param {
    num_output: 64
    pad: 2
    kernel_size: 5
    stride: 1
    weight_filler {
      type: "gaussian"
      std: 0.01
    }
    bias_filler {
      type: "constant"
    }
  }
}
layer {
  name: "relu3"
  type: "ReLU"
  bottom: "conv3"
  top: "conv3"
}
layer {
  name: "pool3"
  type: "Pooling"
  bottom: "conv3"
  top: "pool3"
  pooling_param {
    pool: AVE
    kernel_size: 3
    stride: 2
  }
}
layer {
  name: "ip1"
  type: "InnerProduct"
  bottom: "pool3"
  top: "ip1"
  param {
    lr_mult: 1
    decay_mult: 250
  }
  param {
    lr_mult: 2
    decay_mult: 0
  }
  inner_product_param {
    num_output: 4
    weight_filler {
      type: "gaussian"
      std: 0.01
    }
    bias_filler {
      type: "constant"
    }
  }
}
layer {
  name: "loss"
  type: "SoftmaxWithLoss"
  bottom: "ip1"
  bottom: "label"
  top: "loss"
}
I0113 13:58:52.300210 28435 layer_factory.hpp:77] Creating layer cifar
I0113 13:58:52.301312 28435 net.cpp:106] Creating Layer cifar
I0113 13:58:52.301336 28435 net.cpp:411] cifar -> data
I0113 13:58:52.301357 28435 net.cpp:411] cifar -> label
I0113 13:58:52.301369 28435 data_transformer.cpp:25] Loading mean file from: mean.binaryproto
I0113 13:58:52.301919 28439 db_lmdb.cpp:38] Opened lmdb train_lmdb
I0113 13:58:52.381531 28435 data_layer.cpp:41] output data size: 100,3,100,100
I0113 13:58:52.401767 28435 net.cpp:150] Setting up cifar
I0113 13:58:52.401826 28435 net.cpp:157] Top shape: 100 3 100 100 (3000000)
I0113 13:58:52.401849 28435 net.cpp:157] Top shape: 100 (100)
I0113 13:58:52.401854 28435 net.cpp:165] Memory required for data: 12000400
I0113 13:58:52.401875 28435 layer_factory.hpp:77] Creating layer conv1
I0113 13:58:52.401914 28435 net.cpp:106] Creating Layer conv1
I0113 13:58:52.401924 28435 net.cpp:454] conv1 <- data
I0113 13:58:52.401948 28435 net.cpp:411] conv1 -> conv1
I0113 13:58:52.406008 28435 net.cpp:150] Setting up conv1
I0113 13:58:52.406046 28435 net.cpp:157] Top shape: 100 32 100 100 (32000000)
I0113 13:58:52.406052 28435 net.cpp:165] Memory required for data: 140000400
I0113 13:58:52.406082 28435 layer_factory.hpp:77] Creating layer pool1
I0113 13:58:52.406105 28435 net.cpp:106] Creating Layer pool1
I0113 13:58:52.406113 28435 net.cpp:454] pool1 <- conv1
I0113 13:58:52.406126 28435 net.cpp:411] pool1 -> pool1
I0113 13:58:52.406178 28435 net.cpp:150] Setting up pool1
I0113 13:58:52.406188 28435 net.cpp:157] Top shape: 100 32 50 50 (8000000)
I0113 13:58:52.406191 28435 net.cpp:165] Memory required for data: 172000400
I0113 13:58:52.406196 28435 layer_factory.hpp:77] Creating layer relu1
I0113 13:58:52.406206 28435 net.cpp:106] Creating Layer relu1
I0113 13:58:52.406211 28435 net.cpp:454] relu1 <- pool1
I0113 13:58:52.406224 28435 net.cpp:397] relu1 -> pool1 (in-place)
I0113 13:58:52.406236 28435 net.cpp:150] Setting up relu1
I0113 13:58:52.406244 28435 net.cpp:157] Top shape: 100 32 50 50 (8000000)
I0113 13:58:52.406246 28435 net.cpp:165] Memory required for data: 204000400
I0113 13:58:52.406251 28435 layer_factory.hpp:77] Creating layer norm1
I0113 13:58:52.406265 28435 net.cpp:106] Creating Layer norm1
I0113 13:58:52.406268 28435 net.cpp:454] norm1 <- pool1
I0113 13:58:52.406277 28435 net.cpp:411] norm1 -> norm1
I0113 13:58:52.406388 28435 net.cpp:150] Setting up norm1
I0113 13:58:52.406399 28435 net.cpp:157] Top shape: 100 32 50 50 (8000000)
I0113 13:58:52.406402 28435 net.cpp:165] Memory required for data: 236000400
I0113 13:58:52.406407 28435 layer_factory.hpp:77] Creating layer conv2
I0113 13:58:52.406426 28435 net.cpp:106] Creating Layer conv2
I0113 13:58:52.406432 28435 net.cpp:454] conv2 <- norm1
I0113 13:58:52.406445 28435 net.cpp:411] conv2 -> conv2
I0113 13:58:52.411113 28435 net.cpp:150] Setting up conv2
I0113 13:58:52.411136 28435 net.cpp:157] Top shape: 100 32 50 50 (8000000)
I0113 13:58:52.411141 28435 net.cpp:165] Memory required for data: 268000400
I0113 13:58:52.411157 28435 layer_factory.hpp:77] Creating layer relu2
I0113 13:58:52.411168 28435 net.cpp:106] Creating Layer relu2
I0113 13:58:52.411175 28435 net.cpp:454] relu2 <- conv2
I0113 13:58:52.411183 28435 net.cpp:397] relu2 -> conv2 (in-place)
I0113 13:58:52.411192 28435 net.cpp:150] Setting up relu2
I0113 13:58:52.411198 28435 net.cpp:157] Top shape: 100 32 50 50 (8000000)
I0113 13:58:52.411202 28435 net.cpp:165] Memory required for data: 300000400
I0113 13:58:52.411206 28435 layer_factory.hpp:77] Creating layer pool2
I0113 13:58:52.411216 28435 net.cpp:106] Creating Layer pool2
I0113 13:58:52.411226 28435 net.cpp:454] pool2 <- conv2
I0113 13:58:52.411237 28435 net.cpp:411] pool2 -> pool2
I0113 13:58:52.411262 28435 net.cpp:150] Setting up pool2
I0113 13:58:52.411270 28435 net.cpp:157] Top shape: 100 32 25 25 (2000000)
I0113 13:58:52.411274 28435 net.cpp:165] Memory required for data: 308000400
I0113 13:58:52.411278 28435 layer_factory.hpp:77] Creating layer norm2
I0113 13:58:52.411301 28435 net.cpp:106] Creating Layer norm2
I0113 13:58:52.411306 28435 net.cpp:454] norm2 <- pool2
I0113 13:58:52.411316 28435 net.cpp:411] norm2 -> norm2
I0113 13:58:52.411418 28435 net.cpp:150] Setting up norm2
I0113 13:58:52.411427 28435 net.cpp:157] Top shape: 100 32 25 25 (2000000)
I0113 13:58:52.411432 28435 net.cpp:165] Memory required for data: 316000400
I0113 13:58:52.411437 28435 layer_factory.hpp:77] Creating layer conv3
I0113 13:58:52.411450 28435 net.cpp:106] Creating Layer conv3
I0113 13:58:52.411455 28435 net.cpp:454] conv3 <- norm2
I0113 13:58:52.411466 28435 net.cpp:411] conv3 -> conv3
I0113 13:58:52.421535 28435 net.cpp:150] Setting up conv3
I0113 13:58:52.421586 28435 net.cpp:157] Top shape: 100 64 25 25 (4000000)
I0113 13:58:52.421591 28435 net.cpp:165] Memory required for data: 332000400
I0113 13:58:52.421615 28435 layer_factory.hpp:77] Creating layer relu3
I0113 13:58:52.421633 28435 net.cpp:106] Creating Layer relu3
I0113 13:58:52.421639 28435 net.cpp:454] relu3 <- conv3
I0113 13:58:52.421651 28435 net.cpp:397] relu3 -> conv3 (in-place)
I0113 13:58:52.421663 28435 net.cpp:150] Setting up relu3
I0113 13:58:52.421669 28435 net.cpp:157] Top shape: 100 64 25 25 (4000000)
I0113 13:58:52.421674 28435 net.cpp:165] Memory required for data: 348000400
I0113 13:58:52.421677 28435 layer_factory.hpp:77] Creating layer pool3
I0113 13:58:52.421687 28435 net.cpp:106] Creating Layer pool3
I0113 13:58:52.421691 28435 net.cpp:454] pool3 <- conv3
I0113 13:58:52.421701 28435 net.cpp:411] pool3 -> pool3
I0113 13:58:52.421731 28435 net.cpp:150] Setting up pool3
I0113 13:58:52.421739 28435 net.cpp:157] Top shape: 100 64 12 12 (921600)
I0113 13:58:52.421743 28435 net.cpp:165] Memory required for data: 351686800
I0113 13:58:52.421747 28435 layer_factory.hpp:77] Creating layer ip1
I0113 13:58:52.421762 28435 net.cpp:106] Creating Layer ip1
I0113 13:58:52.421767 28435 net.cpp:454] ip1 <- pool3
I0113 13:58:52.421778 28435 net.cpp:411] ip1 -> ip1
I0113 13:58:52.428053 28435 net.cpp:150] Setting up ip1
I0113 13:58:52.428067 28435 net.cpp:157] Top shape: 100 4 (400)
I0113 13:58:52.428071 28435 net.cpp:165] Memory required for data: 351688400
I0113 13:58:52.428081 28435 layer_factory.hpp:77] Creating layer loss
I0113 13:58:52.428092 28435 net.cpp:106] Creating Layer loss
I0113 13:58:52.428097 28435 net.cpp:454] loss <- ip1
I0113 13:58:52.428105 28435 net.cpp:454] loss <- label
I0113 13:58:52.428112 28435 net.cpp:411] loss -> loss
I0113 13:58:52.428125 28435 layer_factory.hpp:77] Creating layer loss
…
I0113 13:58:52.429080 28435 solver.cpp:181] Creating test net (#0) specified by net file: krnet_full_train_test.prototxt
I0113 13:58:52.429141 28435 net.cpp:322] The NetState phase (1) differed from the phase (0) specified by a rule in layer cifar
I0113 13:58:52.429756 28435 net.cpp:49] Initializing net from parameters: 
name: "CIFAR10_full"
state {
  phase: TEST
}
layer {
  name: "cifar"
  type: "Data"
  top: "data"
  top: "label"
  include {
    phase: TEST
  }
  transform_param {
    mean_file: "mean.binaryproto"
  }
  data_param {
    source: "test_lmdb"
    batch_size: 100
    backend: LMDB
    prefetch: 50
  }
}
layer {
  name: "conv1"
  type: "Convolution"
  bottom: "data"
  top: "conv1"
  param {
    lr_mult: 1
  }
  param {
    lr_mult: 2
  }
  convolution_param {
    num_output: 32
    pad: 2
    kernel_size: 5
    stride: 1
    weight_filler {
      type: "gaussian"
      std: 0.0001
    }
    bias_filler {
      type: "constant"
    }
  }
}
layer {
  name: "pool1"
  type: "Pooling"
  bottom: "conv1"
  top: "pool1"
  pooling_param {
    pool: MAX
    kernel_size: 3
    stride: 2
  }
}
layer {
  name: "relu1"
  type: "ReLU"
  bottom: "pool1"
  top: "pool1"
}
layer {
  name: "norm1"
  type: "LRN"
  bottom: "pool1"
  top: "norm1"
  lrn_param {
    local_size: 3
    alpha: 5e-05
    beta: 0.75
    norm_region: WITHIN_CHANNEL
  }
}
layer {
  name: "conv2"
  type: "Convolution"
  bottom: "norm1"
  top: "conv2"
  param {
    lr_mult: 1
  }
  param {
    lr_mult: 2
  }
  convolution_param {
    num_output: 32
    pad: 2
    kernel_size: 5
    stride: 1
    weight_filler {
      type: "gaussian"
      std: 0.01
    }
    bias_filler {
      type: "constant"
    }
  }
}
layer {
  name: "relu2"
  type: "ReLU"
  bottom: "conv2"
  top: "conv2"
}
layer {
  name: "pool2"
  type: "Pooling"
  bottom: "conv2"
  top: "pool2"
  pooling_param {
    pool: AVE
    kernel_size: 3
    stride: 2
  }
}
layer {
  name: "norm2"
  type: "LRN"
  bottom: "pool2"
  top: "norm2"
  lrn_param {
    local_size: 3
    alpha: 5e-05
    beta: 0.75
    norm_region: WITHIN_CHANNEL
  }
}
layer {
  name: "conv3"
  type: "Convolution"
  bottom: "norm2"
  top: "conv3"
  convolution_param {
    num_output: 64
    pad: 2
    kernel_size: 5
    stride: 1
    weight_filler {
      type: "gaussian"
      std: 0.01
    }
    bias_filler {
      type: "constant"
    }
  }
}
layer {
  name: "relu3"
  type: "ReLU"
  bottom: "conv3"
  top: "conv3"
}
layer {
  name: "pool3"
  type: "Pooling"
  bottom: "conv3"
  top: "pool3"
  pooling_param {
    pool: AVE
    kernel_size: 3
    stride: 2
  }
}
layer {
  name: "ip1"
  type: "InnerProduct"
  bottom: "pool3"
  top: "ip1"
  param {
    lr_mult: 1
    decay_mult: 250
  }
  param {
    lr_mult: 2
    decay_mult: 0
  }
  inner_product_param {
    num_output: 4
    weight_filler {
      type: "gaussian"
      std: 0.01
    }
    bias_filler {
      type: "constant"
    }
  }
}
layer {
  name: "accuracy"
  type: "Accuracy"
  bottom: "ip1"
  bottom: "label"
  top: "accuracy"
  include {
    phase: TEST
  }
}
layer {
  name: "loss"
  type: "SoftmaxWithLoss"
  bottom: "ip1"
  bottom: "label"
  top: "loss"
}
I0113 13:58:52.429934 28435 layer_factory.hpp:77] Creating layer cifar
I0113 13:58:52.430972 28435 net.cpp:106] Creating Layer cifar
I0113 13:58:52.430986 28435 net.cpp:411] cifar -> data
I0113 13:58:52.431002 28435 net.cpp:411] cifar -> label
I0113 13:58:52.431013 28435 data_transformer.cpp:25] Loading mean file from: mean.binaryproto
I0113 13:58:52.431566 28441 db_lmdb.cpp:38] Opened lmdb test_lmdb
I0113 13:58:52.432521 28435 data_layer.cpp:41] output data size: 100,3,100,100
I0113 13:58:52.452801 28435 net.cpp:150] Setting up cifar
I0113 13:58:52.452850 28435 net.cpp:157] Top shape: 100 3 100 100 (3000000)
I0113 13:58:52.452858 28435 net.cpp:157] Top shape: 100 (100)
I0113 13:58:52.452862 28435 net.cpp:165] Memory required for data: 12000400
I0113 13:58:52.452874 28435 layer_factory.hpp:77] Creating layer label_cifar_1_split
I0113 13:58:52.452898 28435 net.cpp:106] Creating Layer label_cifar_1_split
I0113 13:58:52.452906 28435 net.cpp:454] label_cifar_1_split <- label
I0113 13:58:52.452922 28435 net.cpp:411] label_cifar_1_split -> label_cifar_1_split_0
I0113 13:58:52.452939 28435 net.cpp:411] label_cifar_1_split -> label_cifar_1_split_1
I0113 13:58:52.452994 28435 net.cpp:150] Setting up label_cifar_1_split
I0113 13:58:52.453004 28435 net.cpp:157] Top shape: 100 (100)
I0113 13:58:52.453011 28435 net.cpp:157] Top shape: 100 (100)
I0113 13:58:52.453014 28435 net.cpp:165] Memory required for data: 12001200
I0113 13:58:52.453018 28435 layer_factory.hpp:77] Creating layer conv1
I0113 13:58:52.453042 28435 net.cpp:106] Creating Layer conv1
I0113 13:58:52.453047 28435 net.cpp:454] conv1 <- data
I0113 13:58:52.453059 28435 net.cpp:411] conv1 -> conv1
I0113 13:58:52.456116 28435 net.cpp:150] Setting up conv1
I0113 13:58:52.456177 28435 net.cpp:157] Top shape: 100 32 100 100 (32000000)
I0113 13:58:52.456182 28435 net.cpp:165] Memory required for data: 140001200
I0113 13:58:52.456213 28435 layer_factory.hpp:77] Creating layer pool1
I0113 13:58:52.456241 28435 net.cpp:106] Creating Layer pool1
I0113 13:58:52.456249 28435 net.cpp:454] pool1 <- conv1
I0113 13:58:52.456262 28435 net.cpp:411] pool1 -> pool1
I0113 13:58:52.456310 28435 net.cpp:150] Setting up pool1
I0113 13:58:52.456320 28435 net.cpp:157] Top shape: 100 32 50 50 (8000000)
I0113 13:58:52.456323 28435 net.cpp:165] Memory required for data: 172001200
I0113 13:58:52.456328 28435 layer_factory.hpp:77] Creating layer relu1
I0113 13:58:52.456341 28435 net.cpp:106] Creating Layer relu1
I0113 13:58:52.456346 28435 net.cpp:454] relu1 <- pool1
I0113 13:58:52.456356 28435 net.cpp:397] relu1 -> pool1 (in-place)
I0113 13:58:52.456365 28435 net.cpp:150] Setting up relu1
I0113 13:58:52.456372 28435 net.cpp:157] Top shape: 100 32 50 50 (8000000)
I0113 13:58:52.456374 28435 net.cpp:165] Memory required for data: 204001200
I0113 13:58:52.456379 28435 layer_factory.hpp:77] Creating layer norm1
I0113 13:58:52.456390 28435 net.cpp:106] Creating Layer norm1
I0113 13:58:52.456395 28435 net.cpp:454] norm1 <- pool1
I0113 13:58:52.456403 28435 net.cpp:411] norm1 -> norm1
I0113 13:58:52.456506 28435 net.cpp:150] Setting up norm1
I0113 13:58:52.456516 28435 net.cpp:157] Top shape: 100 32 50 50 (8000000)
I0113 13:58:52.456519 28435 net.cpp:165] Memory required for data: 236001200
I0113 13:58:52.456524 28435 layer_factory.hpp:77] Creating layer conv2
I0113 13:58:52.456544 28435 net.cpp:106] Creating Layer conv2
I0113 13:58:52.456549 28435 net.cpp:454] conv2 <- norm1
I0113 13:58:52.456562 28435 net.cpp:411] conv2 -> conv2
I0113 13:58:52.461302 28435 net.cpp:150] Setting up conv2
I0113 13:58:52.461344 28435 net.cpp:157] Top shape: 100 32 50 50 (8000000)
I0113 13:58:52.461349 28435 net.cpp:165] Memory required for data: 268001200
I0113 13:58:52.461375 28435 layer_factory.hpp:77] Creating layer relu2
I0113 13:58:52.461392 28435 net.cpp:106] Creating Layer relu2
I0113 13:58:52.461401 28435 net.cpp:454] relu2 <- conv2
I0113 13:58:52.461413 28435 net.cpp:397] relu2 -> conv2 (in-place)
I0113 13:58:52.461427 28435 net.cpp:150] Setting up relu2
I0113 13:58:52.461433 28435 net.cpp:157] Top shape: 100 32 50 50 (8000000)
I0113 13:58:52.461436 28435 net.cpp:165] Memory required for data: 300001200
I0113 13:58:52.461441 28435 layer_factory.hpp:77] Creating layer pool2
I0113 13:58:52.461455 28435 net.cpp:106] Creating Layer pool2
I0113 13:58:52.461460 28435 net.cpp:454] pool2 <- conv2
I0113 13:58:52.461470 28435 net.cpp:411] pool2 -> pool2
I0113 13:58:52.461503 28435 net.cpp:150] Setting up pool2
I0113 13:58:52.461513 28435 net.cpp:157] Top shape: 100 32 25 25 (2000000)
I0113 13:58:52.461516 28435 net.cpp:165] Memory required for data: 308001200
I0113 13:58:52.461521 28435 layer_factory.hpp:77] Creating layer norm2
I0113 13:58:52.461534 28435 net.cpp:106] Creating Layer norm2
I0113 13:58:52.461539 28435 net.cpp:454] norm2 <- pool2
I0113 13:58:52.461549 28435 net.cpp:411] norm2 -> norm2
I0113 13:58:52.461649 28435 net.cpp:150] Setting up norm2
I0113 13:58:52.461659 28435 net.cpp:157] Top shape: 100 32 25 25 (2000000)
I0113 13:58:52.461663 28435 net.cpp:165] Memory required for data: 316001200
I0113 13:58:52.461668 28435 layer_factory.hpp:77] Creating layer conv3
I0113 13:58:52.461684 28435 net.cpp:106] Creating Layer conv3
I0113 13:58:52.461689 28435 net.cpp:454] conv3 <- norm2
I0113 13:58:52.461701 28435 net.cpp:411] conv3 -> conv3
I0113 13:58:52.470721 28435 net.cpp:150] Setting up conv3
I0113 13:58:52.470767 28435 net.cpp:157] Top shape: 100 64 25 25 (4000000)
I0113 13:58:52.470772 28435 net.cpp:165] Memory required for data: 332001200
I0113 13:58:52.470799 28435 layer_factory.hpp:77] Creating layer relu3
I0113 13:58:52.470818 28435 net.cpp:106] Creating Layer relu3
I0113 13:58:52.470826 28435 net.cpp:454] relu3 <- conv3
I0113 13:58:52.470854 28435 net.cpp:397] relu3 -> conv3 (in-place)
I0113 13:58:52.470877 28435 net.cpp:150] Setting up relu3
I0113 13:58:52.470885 28435 net.cpp:157] Top shape: 100 64 25 25 (4000000)
I0113 13:58:52.470888 28435 net.cpp:165] Memory required for data: 348001200
I0113 13:58:52.470893 28435 layer_factory.hpp:77] Creating layer pool3
I0113 13:58:52.470906 28435 net.cpp:106] Creating Layer pool3
I0113 13:58:52.470909 28435 net.cpp:454] pool3 <- conv3
I0113 13:58:52.470919 28435 net.cpp:411] pool3 -> pool3
I0113 13:58:52.470949 28435 net.cpp:150] Setting up pool3
I0113 13:58:52.470957 28435 net.cpp:157] Top shape: 100 64 12 12 (921600)
I0113 13:58:52.470962 28435 net.cpp:165] Memory required for data: 351687600
I0113 13:58:52.470965 28435 layer_factory.hpp:77] Creating layer ip1
I0113 13:58:52.470979 28435 net.cpp:106] Creating Layer ip1
I0113 13:58:52.470984 28435 net.cpp:454] ip1 <- pool3
I0113 13:58:52.470994 28435 net.cpp:411] ip1 -> ip1
I0113 13:58:52.477460 28435 net.cpp:150] Setting up ip1
I0113 13:58:52.477510 28435 net.cpp:157] Top shape: 100 4 (400)
I0113 13:58:52.477515 28435 net.cpp:165] Memory required for data: 351689200
I0113 13:58:52.477532 28435 layer_factory.hpp:77] Creating layer ip1_ip1_0_split
I0113 13:58:52.477551 28435 net.cpp:106] Creating Layer ip1_ip1_0_split
I0113 13:58:52.477561 28435 net.cpp:454] ip1_ip1_0_split <- ip1
I0113 13:58:52.477576 28435 net.cpp:411] ip1_ip1_0_split -> ip1_ip1_0_split_0
I0113 13:58:52.477591 28435 net.cpp:411] ip1_ip1_0_split -> ip1_ip1_0_split_1
I0113 13:58:52.477633 28435 net.cpp:150] Setting up ip1_ip1_0_split
I0113 13:58:52.477643 28435 net.cpp:157] Top shape: 100 4 (400)
I0113 13:58:52.477648 28435 net.cpp:157] Top shape: 100 4 (400)
I0113 13:58:52.477653 28435 net.cpp:165] Memory required for data: 351692400
I0113 13:58:52.477658 28435 layer_factory.hpp:77] Creating layer accuracy
I0113 13:58:52.477674 28435 net.cpp:106] Creating Layer accuracy
I0113 13:58:52.477679 28435 net.cpp:454] accuracy <- ip1_ip1_0_split_0
I0113 13:58:52.477687 28435 net.cpp:454] accuracy <- label_cifar_1_split_0
I0113 13:58:52.477696 28435 net.cpp:411] accuracy -> accuracy
…
