…
I0113 11:33:13.854929 25204 net.cpp:322] The NetState phase (0) differed from the phase (1) specified by a rule in layer cifar
I0113 11:33:13.854946 25204 net.cpp:322] The NetState phase (0) differed from the phase (1) specified by a rule in layer accuracy
I0113 11:33:13.855139 25204 net.cpp:49] Initializing net from parameters: 
name: "CIFAR10_full"
state {
  phase: TRAIN
}
layer {
  name: "cifar"
  type: "Data"
  top: "data"
  top: "label"
  include {
    phase: TRAIN
  }
  transform_param {
    mean_file: "mean.binaryproto"
  }
  data_param {
    source: "train_lmdb"
    batch_size: 100
    backend: LMDB
    prefetch: 50
  }
}
layer {
  name: "conv1"
  type: "Convolution"
  bottom: "data"
  top: "conv1"
  param {
    lr_mult: 1
  }
  param {
    lr_mult: 2
  }
  convolution_param {
    num_output: 32
    pad: 2
    kernel_size: 5
    stride: 1
    weight_filler {
      type: "gaussian"
      std: 0.0001
    }
    bias_filler {
      type: "constant"
    }
  }
}
layer {
  name: "pool1"
  type: "Pooling"
  bottom: "conv1"
  top: "pool1"
  pooling_param {
    pool: MAX
    kernel_size: 3
    stride: 2
  }
}
layer {
  name: "relu1"
  type: "ReLU"
  bottom: "pool1"
  top: "pool1"
}
layer {
  name: "norm1"
  type: "LRN"
  bottom: "pool1"
  top: "norm1"
  lrn_param {
    local_size: 3
    alpha: 5e-05
    beta: 0.75
    norm_region: WITHIN_CHANNEL
  }
}
layer {
  name: "conv2"
  type: "Convolution"
  bottom: "norm1"
  top: "conv2"
  param {
    lr_mult: 1
  }
  param {
    lr_mult: 2
  }
  convolution_param {
    num_output: 32
    pad: 2
    kernel_size: 5
    stride: 1
    weight_filler {
      type: "gaussian"
      std: 0.01
    }
    bias_filler {
      type: "constant"
    }
  }
}
layer {
  name: "relu2"
  type: "ReLU"
  bottom: "conv2"
  top: "conv2"
}
layer {
  name: "pool2"
  type: "Pooling"
  bottom: "conv2"
  top: "pool2"
  pooling_param {
    pool: AVE
    kernel_size: 3
    stride: 2
  }
}
layer {
  name: "norm2"
  type: "LRN"
  bottom: "pool2"
  top: "norm2"
  lrn_param {
    local_size: 3
    alpha: 5e-05
    beta: 0.75
    norm_region: WITHIN_CHANNEL
  }
}
layer {
  name: "conv3"
  type: "Convolution"
  bottom: "norm2"
  top: "conv3"
  convolution_param {
    num_output: 64
    pad: 2
    kernel_size: 5
    stride: 1
    weight_filler {
      type: "gaussian"
      std: 0.01
    }
    bias_filler {
      type: "constant"
    }
  }
}
layer {
  name: "relu3"
  type: "ReLU"
  bottom: "conv3"
  top: "conv3"
}
layer {
  name: "pool3"
  type: "Pooling"
  bottom: "conv3"
  top: "pool3"
  pooling_param {
    pool: AVE
    kernel_size: 3
    stride: 2
  }
}
layer {
  name: "ip1"
  type: "InnerProduct"
  bottom: "pool3"
  top: "ip1"
  param {
    lr_mult: 1
    decay_mult: 250
  }
  param {
    lr_mult: 2
    decay_mult: 0
  }
  inner_product_param {
    num_output: 3
    weight_filler {
      type: "gaussian"
      std: 0.01
    }
    bias_filler {
      type: "constant"
    }
  }
}
layer {
  name: "loss"
  type: "SoftmaxWithLoss"
  bottom: "ip1"
  bottom: "label"
  top: "loss"
}
I0113 11:33:13.855247 25204 layer_factory.hpp:77] Creating layer cifar
I0113 11:33:13.856184 25204 net.cpp:106] Creating Layer cifar
I0113 11:33:13.856194 25204 net.cpp:411] cifar -> data
I0113 11:33:13.856209 25204 net.cpp:411] cifar -> label
I0113 11:33:13.856222 25204 data_transformer.cpp:25] Loading mean file from: mean.binaryproto
I0113 11:33:13.856719 25208 db_lmdb.cpp:38] Opened lmdb train_lmdb
I0113 11:33:13.869551 25204 data_layer.cpp:41] output data size: 100,3,100,100
I0113 11:33:13.882328 25204 net.cpp:150] Setting up cifar
I0113 11:33:13.882369 25204 net.cpp:157] Top shape: 100 3 100 100 (3000000)
I0113 11:33:13.882382 25204 net.cpp:157] Top shape: 100 (100)
I0113 11:33:13.882385 25204 net.cpp:165] Memory required for data: 12000400
I0113 11:33:13.882400 25204 layer_factory.hpp:77] Creating layer conv1
I0113 11:33:13.882427 25204 net.cpp:106] Creating Layer conv1
I0113 11:33:13.882433 25204 net.cpp:454] conv1 <- data
I0113 11:33:13.882452 25204 net.cpp:411] conv1 -> conv1
I0113 11:33:13.884836 25204 net.cpp:150] Setting up conv1
I0113 11:33:13.884865 25204 net.cpp:157] Top shape: 100 32 100 100 (32000000)
I0113 11:33:13.884868 25204 net.cpp:165] Memory required for data: 140000400
I0113 11:33:13.884891 25204 layer_factory.hpp:77] Creating layer pool1
I0113 11:33:13.884910 25204 net.cpp:106] Creating Layer pool1
I0113 11:33:13.884915 25204 net.cpp:454] pool1 <- conv1
I0113 11:33:13.884923 25204 net.cpp:411] pool1 -> pool1
I0113 11:33:13.884963 25204 net.cpp:150] Setting up pool1
I0113 11:33:13.884969 25204 net.cpp:157] Top shape: 100 32 50 50 (8000000)
I0113 11:33:13.884971 25204 net.cpp:165] Memory required for data: 172000400
I0113 11:33:13.884974 25204 layer_factory.hpp:77] Creating layer relu1
I0113 11:33:13.884982 25204 net.cpp:106] Creating Layer relu1
I0113 11:33:13.884985 25204 net.cpp:454] relu1 <- pool1
I0113 11:33:13.884991 25204 net.cpp:397] relu1 -> pool1 (in-place)
I0113 11:33:13.884996 25204 net.cpp:150] Setting up relu1
I0113 11:33:13.885000 25204 net.cpp:157] Top shape: 100 32 50 50 (8000000)
I0113 11:33:13.885002 25204 net.cpp:165] Memory required for data: 204000400
I0113 11:33:13.885005 25204 layer_factory.hpp:77] Creating layer norm1
I0113 11:33:13.885013 25204 net.cpp:106] Creating Layer norm1
I0113 11:33:13.885016 25204 net.cpp:454] norm1 <- pool1
I0113 11:33:13.885022 25204 net.cpp:411] norm1 -> norm1
I0113 11:33:13.885107 25204 net.cpp:150] Setting up norm1
I0113 11:33:13.885115 25204 net.cpp:157] Top shape: 100 32 50 50 (8000000)
I0113 11:33:13.885118 25204 net.cpp:165] Memory required for data: 236000400
I0113 11:33:13.885121 25204 layer_factory.hpp:77] Creating layer conv2
I0113 11:33:13.885134 25204 net.cpp:106] Creating Layer conv2
I0113 11:33:13.885138 25204 net.cpp:454] conv2 <- norm1
I0113 11:33:13.885145 25204 net.cpp:411] conv2 -> conv2
I0113 11:33:13.888238 25204 net.cpp:150] Setting up conv2
I0113 11:33:13.888269 25204 net.cpp:157] Top shape: 100 32 50 50 (8000000)
I0113 11:33:13.888273 25204 net.cpp:165] Memory required for data: 268000400
I0113 11:33:13.888291 25204 layer_factory.hpp:77] Creating layer relu2
I0113 11:33:13.888305 25204 net.cpp:106] Creating Layer relu2
I0113 11:33:13.888310 25204 net.cpp:454] relu2 <- conv2
I0113 11:33:13.888319 25204 net.cpp:397] relu2 -> conv2 (in-place)
I0113 11:33:13.888327 25204 net.cpp:150] Setting up relu2
I0113 11:33:13.888330 25204 net.cpp:157] Top shape: 100 32 50 50 (8000000)
I0113 11:33:13.888334 25204 net.cpp:165] Memory required for data: 300000400
I0113 11:33:13.888335 25204 layer_factory.hpp:77] Creating layer pool2
I0113 11:33:13.888345 25204 net.cpp:106] Creating Layer pool2
I0113 11:33:13.888347 25204 net.cpp:454] pool2 <- conv2
I0113 11:33:13.888353 25204 net.cpp:411] pool2 -> pool2
I0113 11:33:13.888376 25204 net.cpp:150] Setting up pool2
I0113 11:33:13.888381 25204 net.cpp:157] Top shape: 100 32 25 25 (2000000)
I0113 11:33:13.888383 25204 net.cpp:165] Memory required for data: 308000400
I0113 11:33:13.888386 25204 layer_factory.hpp:77] Creating layer norm2
I0113 11:33:13.888399 25204 net.cpp:106] Creating Layer norm2
I0113 11:33:13.888402 25204 net.cpp:454] norm2 <- pool2
I0113 11:33:13.888408 25204 net.cpp:411] norm2 -> norm2
I0113 11:33:13.888483 25204 net.cpp:150] Setting up norm2
I0113 11:33:13.888489 25204 net.cpp:157] Top shape: 100 32 25 25 (2000000)
I0113 11:33:13.888491 25204 net.cpp:165] Memory required for data: 316000400
I0113 11:33:13.888494 25204 layer_factory.hpp:77] Creating layer conv3
I0113 11:33:13.888507 25204 net.cpp:106] Creating Layer conv3
I0113 11:33:13.888511 25204 net.cpp:454] conv3 <- norm2
I0113 11:33:13.888519 25204 net.cpp:411] conv3 -> conv3
I0113 11:33:13.895179 25204 net.cpp:150] Setting up conv3
I0113 11:33:13.895225 25204 net.cpp:157] Top shape: 100 64 25 25 (4000000)
I0113 11:33:13.895228 25204 net.cpp:165] Memory required for data: 332000400
I0113 11:33:13.895248 25204 layer_factory.hpp:77] Creating layer relu3
I0113 11:33:13.895264 25204 net.cpp:106] Creating Layer relu3
I0113 11:33:13.895270 25204 net.cpp:454] relu3 <- conv3
I0113 11:33:13.895278 25204 net.cpp:397] relu3 -> conv3 (in-place)
I0113 11:33:13.895287 25204 net.cpp:150] Setting up relu3
I0113 11:33:13.895290 25204 net.cpp:157] Top shape: 100 64 25 25 (4000000)
I0113 11:33:13.895293 25204 net.cpp:165] Memory required for data: 348000400
I0113 11:33:13.895295 25204 layer_factory.hpp:77] Creating layer pool3
I0113 11:33:13.895304 25204 net.cpp:106] Creating Layer pool3
I0113 11:33:13.895308 25204 net.cpp:454] pool3 <- conv3
I0113 11:33:13.895313 25204 net.cpp:411] pool3 -> pool3
I0113 11:33:13.895341 25204 net.cpp:150] Setting up pool3
I0113 11:33:13.895347 25204 net.cpp:157] Top shape: 100 64 12 12 (921600)
I0113 11:33:13.895349 25204 net.cpp:165] Memory required for data: 351686800
I0113 11:33:13.895351 25204 layer_factory.hpp:77] Creating layer ip1
I0113 11:33:13.895364 25204 net.cpp:106] Creating Layer ip1
I0113 11:33:13.895366 25204 net.cpp:454] ip1 <- pool3
I0113 11:33:13.895375 25204 net.cpp:411] ip1 -> ip1
I0113 11:33:13.898615 25204 net.cpp:150] Setting up ip1
I0113 11:33:13.898646 25204 net.cpp:157] Top shape: 100 3 (300)
I0113 11:33:13.898649 25204 net.cpp:165] Memory required for data: 351688000
I0113 11:33:13.898660 25204 layer_factory.hpp:77] Creating layer loss
I0113 11:33:13.898675 25204 net.cpp:106] Creating Layer loss
I0113 11:33:13.898680 25204 net.cpp:454] loss <- ip1
I0113 11:33:13.898689 25204 net.cpp:454] loss <- label
I0113 11:33:13.898695 25204 net.cpp:411] loss -> loss
I0113 11:33:13.898710 25204 layer_factory.hpp:77] Creating layer loss
…
I0113 11:33:13.899329 25204 solver.cpp:181] Creating test net (#0) specified by net file: krnet_full_train_test.prototxt
I0113 11:33:13.899384 25204 net.cpp:322] The NetState phase (1) differed from the phase (0) specified by a rule in layer cifar
I0113 11:33:13.899613 25204 net.cpp:49] Initializing net from parameters: 
name: "CIFAR10_full"
state {
  phase: TEST
}
layer {
  name: "cifar"
  type: "Data"
  top: "data"
  top: "label"
  include {
    phase: TEST
  }
  transform_param {
    mean_file: "mean.binaryproto"
  }
  data_param {
    source: "test_lmdb"
    batch_size: 100
    backend: LMDB
    prefetch: 50
  }
}
layer {
  name: "conv1"
  type: "Convolution"
  bottom: "data"
  top: "conv1"
  param {
    lr_mult: 1
  }
  param {
    lr_mult: 2
  }
  convolution_param {
    num_output: 32
    pad: 2
    kernel_size: 5
    stride: 1
    weight_filler {
      type: "gaussian"
      std: 0.0001
    }
    bias_filler {
      type: "constant"
    }
  }
}
layer {
  name: "pool1"
  type: "Pooling"
  bottom: "conv1"
  top: "pool1"
  pooling_param {
    pool: MAX
    kernel_size: 3
    stride: 2
  }
}
layer {
  name: "relu1"
  type: "ReLU"
  bottom: "pool1"
  top: "pool1"
}
layer {
  name: "norm1"
  type: "LRN"
  bottom: "pool1"
  top: "norm1"
  lrn_param {
    local_size: 3
    alpha: 5e-05
    beta: 0.75
    norm_region: WITHIN_CHANNEL
  }
}
layer {
  name: "conv2"
  type: "Convolution"
  bottom: "norm1"
  top: "conv2"
  param {
    lr_mult: 1
  }
  param {
    lr_mult: 2
  }
  convolution_param {
    num_output: 32
    pad: 2
    kernel_size: 5
    stride: 1
    weight_filler {
      type: "gaussian"
      std: 0.01
    }
    bias_filler {
      type: "constant"
    }
  }
}
layer {
  name: "relu2"
  type: "ReLU"
  bottom: "conv2"
  top: "conv2"
}
layer {
  name: "pool2"
  type: "Pooling"
  bottom: "conv2"
  top: "pool2"
  pooling_param {
    pool: AVE
    kernel_size: 3
    stride: 2
  }
}
layer {
  name: "norm2"
  type: "LRN"
  bottom: "pool2"
  top: "norm2"
  lrn_param {
    local_size: 3
    alpha: 5e-05
    beta: 0.75
    norm_region: WITHIN_CHANNEL
  }
}
layer {
  name: "conv3"
  type: "Convolution"
  bottom: "norm2"
  top: "conv3"
  convolution_param {
    num_output: 64
    pad: 2
    kernel_size: 5
    stride: 1
    weight_filler {
      type: "gaussian"
      std: 0.01
    }
    bias_filler {
      type: "constant"
    }
  }
}
layer {
  name: "relu3"
  type: "ReLU"
  bottom: "conv3"
  top: "conv3"
}
layer {
  name: "pool3"
  type: "Pooling"
  bottom: "conv3"
  top: "pool3"
  pooling_param {
    pool: AVE
    kernel_size: 3
    stride: 2
  }
}
layer {
  name: "ip1"
  type: "InnerProduct"
  bottom: "pool3"
  top: "ip1"
  param {
    lr_mult: 1
    decay_mult: 250
  }
  param {
    lr_mult: 2
    decay_mult: 0
  }
  inner_product_param {
    num_output: 3
    weight_filler {
      type: "gaussian"
      std: 0.01
    }
    bias_filler {
      type: "constant"
    }
  }
}
layer {
  name: "accuracy"
  type: "Accuracy"
  bottom: "ip1"
  bottom: "label"
  top: "accuracy"
  include {
    phase: TEST
  }
}
layer {
  name: "loss"
  type: "SoftmaxWithLoss"
  bottom: "ip1"
  bottom: "label"
  top: "loss"
}
I0113 11:33:13.899740 25204 layer_factory.hpp:77] Creating layer cifar
I0113 11:33:13.900499 25204 net.cpp:106] Creating Layer cifar
I0113 11:33:13.900512 25204 net.cpp:411] cifar -> data
I0113 11:33:13.900527 25204 net.cpp:411] cifar -> label
I0113 11:33:13.900535 25204 data_transformer.cpp:25] Loading mean file from: mean.binaryproto
I0113 11:33:13.901101 25210 db_lmdb.cpp:38] Opened lmdb test_lmdb
I0113 11:33:13.901600 25204 data_layer.cpp:41] output data size: 100,3,100,100
I0113 11:33:13.916446 25204 net.cpp:150] Setting up cifar
I0113 11:33:13.916497 25204 net.cpp:157] Top shape: 100 3 100 100 (3000000)
I0113 11:33:13.916507 25204 net.cpp:157] Top shape: 100 (100)
I0113 11:33:13.916512 25204 net.cpp:165] Memory required for data: 12000400
I0113 11:33:13.916522 25204 layer_factory.hpp:77] Creating layer label_cifar_1_split
I0113 11:33:13.916548 25204 net.cpp:106] Creating Layer label_cifar_1_split
I0113 11:33:13.916556 25204 net.cpp:454] label_cifar_1_split <- label
I0113 11:33:13.916573 25204 net.cpp:411] label_cifar_1_split -> label_cifar_1_split_0
I0113 11:33:13.916587 25204 net.cpp:411] label_cifar_1_split -> label_cifar_1_split_1
I0113 11:33:13.916643 25204 net.cpp:150] Setting up label_cifar_1_split
I0113 11:33:13.916651 25204 net.cpp:157] Top shape: 100 (100)
I0113 11:33:13.916657 25204 net.cpp:157] Top shape: 100 (100)
I0113 11:33:13.916661 25204 net.cpp:165] Memory required for data: 12001200
I0113 11:33:13.916664 25204 layer_factory.hpp:77] Creating layer conv1
I0113 11:33:13.916687 25204 net.cpp:106] Creating Layer conv1
I0113 11:33:13.916693 25204 net.cpp:454] conv1 <- data
I0113 11:33:13.916704 25204 net.cpp:411] conv1 -> conv1
I0113 11:33:13.918571 25204 net.cpp:150] Setting up conv1
I0113 11:33:13.918638 25204 net.cpp:157] Top shape: 100 32 100 100 (32000000)
I0113 11:33:13.918644 25204 net.cpp:165] Memory required for data: 140001200
I0113 11:33:13.918676 25204 layer_factory.hpp:77] Creating layer pool1
I0113 11:33:13.918700 25204 net.cpp:106] Creating Layer pool1
I0113 11:33:13.918709 25204 net.cpp:454] pool1 <- conv1
I0113 11:33:13.918720 25204 net.cpp:411] pool1 -> pool1
I0113 11:33:13.918771 25204 net.cpp:150] Setting up pool1
I0113 11:33:13.918781 25204 net.cpp:157] Top shape: 100 32 50 50 (8000000)
I0113 11:33:13.918784 25204 net.cpp:165] Memory required for data: 172001200
I0113 11:33:13.918789 25204 layer_factory.hpp:77] Creating layer relu1
I0113 11:33:13.918802 25204 net.cpp:106] Creating Layer relu1
I0113 11:33:13.918805 25204 net.cpp:454] relu1 <- pool1
I0113 11:33:13.918814 25204 net.cpp:397] relu1 -> pool1 (in-place)
I0113 11:33:13.918823 25204 net.cpp:150] Setting up relu1
I0113 11:33:13.918829 25204 net.cpp:157] Top shape: 100 32 50 50 (8000000)
I0113 11:33:13.918833 25204 net.cpp:165] Memory required for data: 204001200
I0113 11:33:13.918836 25204 layer_factory.hpp:77] Creating layer norm1
I0113 11:33:13.918848 25204 net.cpp:106] Creating Layer norm1
I0113 11:33:13.918853 25204 net.cpp:454] norm1 <- pool1
I0113 11:33:13.918860 25204 net.cpp:411] norm1 -> norm1
I0113 11:33:13.918962 25204 net.cpp:150] Setting up norm1
I0113 11:33:13.918972 25204 net.cpp:157] Top shape: 100 32 50 50 (8000000)
I0113 11:33:13.918975 25204 net.cpp:165] Memory required for data: 236001200
I0113 11:33:13.918979 25204 layer_factory.hpp:77] Creating layer conv2
I0113 11:33:13.918999 25204 net.cpp:106] Creating Layer conv2
I0113 11:33:13.919004 25204 net.cpp:454] conv2 <- norm1
I0113 11:33:13.919015 25204 net.cpp:411] conv2 -> conv2
I0113 11:33:13.923626 25204 net.cpp:150] Setting up conv2
I0113 11:33:13.923673 25204 net.cpp:157] Top shape: 100 32 50 50 (8000000)
I0113 11:33:13.923678 25204 net.cpp:165] Memory required for data: 268001200
I0113 11:33:13.923707 25204 layer_factory.hpp:77] Creating layer relu2
I0113 11:33:13.923725 25204 net.cpp:106] Creating Layer relu2
I0113 11:33:13.923733 25204 net.cpp:454] relu2 <- conv2
I0113 11:33:13.923745 25204 net.cpp:397] relu2 -> conv2 (in-place)
I0113 11:33:13.923758 25204 net.cpp:150] Setting up relu2
I0113 11:33:13.923764 25204 net.cpp:157] Top shape: 100 32 50 50 (8000000)
I0113 11:33:13.923768 25204 net.cpp:165] Memory required for data: 300001200
I0113 11:33:13.923773 25204 layer_factory.hpp:77] Creating layer pool2
I0113 11:33:13.923789 25204 net.cpp:106] Creating Layer pool2
I0113 11:33:13.923792 25204 net.cpp:454] pool2 <- conv2
I0113 11:33:13.923801 25204 net.cpp:411] pool2 -> pool2
I0113 11:33:13.923833 25204 net.cpp:150] Setting up pool2
I0113 11:33:13.923844 25204 net.cpp:157] Top shape: 100 32 25 25 (2000000)
I0113 11:33:13.923847 25204 net.cpp:165] Memory required for data: 308001200
I0113 11:33:13.923852 25204 layer_factory.hpp:77] Creating layer norm2
I0113 11:33:13.923863 25204 net.cpp:106] Creating Layer norm2
I0113 11:33:13.923868 25204 net.cpp:454] norm2 <- pool2
I0113 11:33:13.923877 25204 net.cpp:411] norm2 -> norm2
I0113 11:33:13.923979 25204 net.cpp:150] Setting up norm2
I0113 11:33:13.923987 25204 net.cpp:157] Top shape: 100 32 25 25 (2000000)
I0113 11:33:13.923991 25204 net.cpp:165] Memory required for data: 316001200
I0113 11:33:13.923995 25204 layer_factory.hpp:77] Creating layer conv3
I0113 11:33:13.924013 25204 net.cpp:106] Creating Layer conv3
I0113 11:33:13.924018 25204 net.cpp:454] conv3 <- norm2
I0113 11:33:13.924028 25204 net.cpp:411] conv3 -> conv3
I0113 11:33:13.932903 25204 net.cpp:150] Setting up conv3
I0113 11:33:13.932952 25204 net.cpp:157] Top shape: 100 64 25 25 (4000000)
I0113 11:33:13.932956 25204 net.cpp:165] Memory required for data: 332001200
I0113 11:33:13.932984 25204 layer_factory.hpp:77] Creating layer relu3
I0113 11:33:13.933003 25204 net.cpp:106] Creating Layer relu3
I0113 11:33:13.933012 25204 net.cpp:454] relu3 <- conv3
I0113 11:33:13.933034 25204 net.cpp:397] relu3 -> conv3 (in-place)
I0113 11:33:13.933060 25204 net.cpp:150] Setting up relu3
I0113 11:33:13.933066 25204 net.cpp:157] Top shape: 100 64 25 25 (4000000)
I0113 11:33:13.933070 25204 net.cpp:165] Memory required for data: 348001200
I0113 11:33:13.933074 25204 layer_factory.hpp:77] Creating layer pool3
I0113 11:33:13.933086 25204 net.cpp:106] Creating Layer pool3
I0113 11:33:13.933090 25204 net.cpp:454] pool3 <- conv3
I0113 11:33:13.933099 25204 net.cpp:411] pool3 -> pool3
I0113 11:33:13.933130 25204 net.cpp:150] Setting up pool3
I0113 11:33:13.933138 25204 net.cpp:157] Top shape: 100 64 12 12 (921600)
I0113 11:33:13.933141 25204 net.cpp:165] Memory required for data: 351687600
I0113 11:33:13.933145 25204 layer_factory.hpp:77] Creating layer ip1
I0113 11:33:13.933159 25204 net.cpp:106] Creating Layer ip1
I0113 11:33:13.933164 25204 net.cpp:454] ip1 <- pool3
I0113 11:33:13.933174 25204 net.cpp:411] ip1 -> ip1
I0113 11:33:13.937963 25204 net.cpp:150] Setting up ip1
I0113 11:33:13.938012 25204 net.cpp:157] Top shape: 100 3 (300)
I0113 11:33:13.938016 25204 net.cpp:165] Memory required for data: 351688800
I0113 11:33:13.938032 25204 layer_factory.hpp:77] Creating layer ip1_ip1_0_split
I0113 11:33:13.938050 25204 net.cpp:106] Creating Layer ip1_ip1_0_split
I0113 11:33:13.938058 25204 net.cpp:454] ip1_ip1_0_split <- ip1
I0113 11:33:13.938072 25204 net.cpp:411] ip1_ip1_0_split -> ip1_ip1_0_split_0
I0113 11:33:13.938087 25204 net.cpp:411] ip1_ip1_0_split -> ip1_ip1_0_split_1
I0113 11:33:13.938128 25204 net.cpp:150] Setting up ip1_ip1_0_split
I0113 11:33:13.938136 25204 net.cpp:157] Top shape: 100 3 (300)
I0113 11:33:13.938143 25204 net.cpp:157] Top shape: 100 3 (300)
I0113 11:33:13.938145 25204 net.cpp:165] Memory required for data: 351691200
I0113 11:33:13.938150 25204 layer_factory.hpp:77] Creating layer accuracy
I0113 11:33:13.938166 25204 net.cpp:106] Creating Layer accuracy
I0113 11:33:13.938171 25204 net.cpp:454] accuracy <- ip1_ip1_0_split_0
I0113 11:33:13.938179 25204 net.cpp:454] accuracy <- label_cifar_1_split_0
I0113 11:33:13.938189 25204 net.cpp:411] accuracy -> accuracy
…
