…
I0112 23:54:06.275487  9562 net.cpp:322] The NetState phase (0) differed from the phase (1) specified by a rule in layer cifar
I0112 23:54:06.275507  9562 net.cpp:322] The NetState phase (0) differed from the phase (1) specified by a rule in layer accuracy
I0112 23:54:06.275696  9562 net.cpp:49] Initializing net from parameters: 
name: "CIFAR10_quick"
state {
  phase: TRAIN
}
layer {
  name: "cifar"
  type: "Data"
  top: "data"
  top: "label"
  include {
    phase: TRAIN
  }
  transform_param {
    mean_file: "mean.binaryproto"
  }
  data_param {
    source: "train_lmdb"
    batch_size: 100
    backend: LMDB
    prefetch: 50
  }
}
layer {
  name: "conv1"
  type: "Convolution"
  bottom: "data"
  top: "conv1"
  param {
    lr_mult: 1
  }
  param {
    lr_mult: 2
  }
  convolution_param {
    num_output: 32
    pad: 2
    kernel_size: 5
    stride: 1
    weight_filler {
      type: "gaussian"
      std: 0.0001
    }
    bias_filler {
      type: "constant"
    }
  }
}
layer {
  name: "pool1"
  type: "Pooling"
  bottom: "conv1"
  top: "pool1"
  pooling_param {
    pool: MAX
    kernel_size: 3
    stride: 2
  }
}
layer {
  name: "relu1"
  type: "ReLU"
  bottom: "pool1"
  top: "pool1"
}
layer {
  name: "conv2"
  type: "Convolution"
  bottom: "pool1"
  top: "conv2"
  param {
    lr_mult: 1
  }
  param {
    lr_mult: 2
  }
  convolution_param {
    num_output: 32
    pad: 2
    kernel_size: 5
    stride: 1
    weight_filler {
      type: "gaussian"
      std: 0.01
    }
    bias_filler {
      type: "constant"
    }
  }
}
layer {
  name: "relu2"
  type: "ReLU"
  bottom: "conv2"
  top: "conv2"
}
layer {
  name: "pool2"
  type: "Pooling"
  bottom: "conv2"
  top: "pool2"
  pooling_param {
    pool: AVE
    kernel_size: 3
    stride: 2
  }
}
layer {
  name: "conv3"
  type: "Convolution"
  bottom: "pool2"
  top: "conv3"
  param {
    lr_mult: 1
  }
  param {
    lr_mult: 2
  }
  convolution_param {
    num_output: 64
    pad: 2
    kernel_size: 5
    stride: 1
    weight_filler {
      type: "gaussian"
      std: 0.01
    }
    bias_filler {
      type: "constant"
    }
  }
}
layer {
  name: "relu3"
  type: "ReLU"
  bottom: "conv3"
  top: "conv3"
}
layer {
  name: "pool3"
  type: "Pooling"
  bottom: "conv3"
  top: "pool3"
  pooling_param {
    pool: AVE
    kernel_size: 3
    stride: 2
  }
}
layer {
  name: "ip1"
  type: "InnerProduct"
  bottom: "pool3"
  top: "ip1"
  param {
    lr_mult: 1
  }
  param {
    lr_mult: 2
  }
  inner_product_param {
    num_output: 64
    weight_filler {
      type: "gaussian"
      std: 0.1
    }
    bias_filler {
      type: "constant"
    }
  }
}
layer {
  name: "ip2"
  type: "InnerProduct"
  bottom: "ip1"
  top: "ip2"
  param {
    lr_mult: 1
  }
  param {
    lr_mult: 2
  }
  inner_product_param {
    num_output: 2
    weight_filler {
      type: "gaussian"
      std: 0.1
    }
    bias_filler {
      type: "constant"
    }
  }
}
layer {
  name: "loss"
  type: "SoftmaxWithLoss"
  bottom: "ip2"
  bottom: "label"
  top: "loss"
}
I0112 23:54:06.275794  9562 layer_factory.hpp:77] Creating layer cifar
I0112 23:54:06.276753  9562 net.cpp:106] Creating Layer cifar
I0112 23:54:06.276767  9562 net.cpp:411] cifar -> data
I0112 23:54:06.276782  9562 net.cpp:411] cifar -> label
I0112 23:54:06.276792  9562 data_transformer.cpp:25] Loading mean file from: mean.binaryproto
I0112 23:54:06.277328  9571 db_lmdb.cpp:38] Opened lmdb train_lmdb
I0112 23:54:06.291352  9562 data_layer.cpp:41] output data size: 100,3,100,100
I0112 23:54:06.305104  9562 net.cpp:150] Setting up cifar
I0112 23:54:06.305140  9562 net.cpp:157] Top shape: 100 3 100 100 (3000000)
I0112 23:54:06.305152  9562 net.cpp:157] Top shape: 100 (100)
I0112 23:54:06.305162  9562 net.cpp:165] Memory required for data: 12000400
I0112 23:54:06.305177  9562 layer_factory.hpp:77] Creating layer conv1
I0112 23:54:06.305207  9562 net.cpp:106] Creating Layer conv1
I0112 23:54:06.305214  9562 net.cpp:454] conv1 <- data
I0112 23:54:06.305234  9562 net.cpp:411] conv1 -> conv1
I0112 23:54:06.307657  9562 net.cpp:150] Setting up conv1
I0112 23:54:06.307683  9562 net.cpp:157] Top shape: 100 32 100 100 (32000000)
I0112 23:54:06.307687  9562 net.cpp:165] Memory required for data: 140000400
I0112 23:54:06.307709  9562 layer_factory.hpp:77] Creating layer pool1
I0112 23:54:06.307726  9562 net.cpp:106] Creating Layer pool1
I0112 23:54:06.307731  9562 net.cpp:454] pool1 <- conv1
I0112 23:54:06.307739  9562 net.cpp:411] pool1 -> pool1
I0112 23:54:06.307777  9562 net.cpp:150] Setting up pool1
I0112 23:54:06.307783  9562 net.cpp:157] Top shape: 100 32 50 50 (8000000)
I0112 23:54:06.307785  9562 net.cpp:165] Memory required for data: 172000400
I0112 23:54:06.307788  9562 layer_factory.hpp:77] Creating layer relu1
I0112 23:54:06.307796  9562 net.cpp:106] Creating Layer relu1
I0112 23:54:06.307799  9562 net.cpp:454] relu1 <- pool1
I0112 23:54:06.307806  9562 net.cpp:397] relu1 -> pool1 (in-place)
I0112 23:54:06.307811  9562 net.cpp:150] Setting up relu1
I0112 23:54:06.307814  9562 net.cpp:157] Top shape: 100 32 50 50 (8000000)
I0112 23:54:06.307816  9562 net.cpp:165] Memory required for data: 204000400
I0112 23:54:06.307819  9562 layer_factory.hpp:77] Creating layer conv2
I0112 23:54:06.307833  9562 net.cpp:106] Creating Layer conv2
I0112 23:54:06.307837  9562 net.cpp:454] conv2 <- pool1
I0112 23:54:06.307844  9562 net.cpp:411] conv2 -> conv2
I0112 23:54:06.310899  9562 net.cpp:150] Setting up conv2
I0112 23:54:06.310930  9562 net.cpp:157] Top shape: 100 32 50 50 (8000000)
I0112 23:54:06.310932  9562 net.cpp:165] Memory required for data: 236000400
I0112 23:54:06.310950  9562 layer_factory.hpp:77] Creating layer relu2
I0112 23:54:06.310963  9562 net.cpp:106] Creating Layer relu2
I0112 23:54:06.310968  9562 net.cpp:454] relu2 <- conv2
I0112 23:54:06.310976  9562 net.cpp:397] relu2 -> conv2 (in-place)
I0112 23:54:06.310986  9562 net.cpp:150] Setting up relu2
I0112 23:54:06.310988  9562 net.cpp:157] Top shape: 100 32 50 50 (8000000)
I0112 23:54:06.310991  9562 net.cpp:165] Memory required for data: 268000400
I0112 23:54:06.310993  9562 layer_factory.hpp:77] Creating layer pool2
I0112 23:54:06.311000  9562 net.cpp:106] Creating Layer pool2
I0112 23:54:06.311003  9562 net.cpp:454] pool2 <- conv2
I0112 23:54:06.311009  9562 net.cpp:411] pool2 -> pool2
I0112 23:54:06.311031  9562 net.cpp:150] Setting up pool2
I0112 23:54:06.311038  9562 net.cpp:157] Top shape: 100 32 25 25 (2000000)
I0112 23:54:06.311039  9562 net.cpp:165] Memory required for data: 276000400
I0112 23:54:06.311043  9562 layer_factory.hpp:77] Creating layer conv3
I0112 23:54:06.311055  9562 net.cpp:106] Creating Layer conv3
I0112 23:54:06.311058  9562 net.cpp:454] conv3 <- pool2
I0112 23:54:06.311066  9562 net.cpp:411] conv3 -> conv3
I0112 23:54:06.317620  9562 net.cpp:150] Setting up conv3
I0112 23:54:06.317653  9562 net.cpp:157] Top shape: 100 64 25 25 (4000000)
I0112 23:54:06.317656  9562 net.cpp:165] Memory required for data: 292000400
I0112 23:54:06.317677  9562 layer_factory.hpp:77] Creating layer relu3
I0112 23:54:06.317693  9562 net.cpp:106] Creating Layer relu3
I0112 23:54:06.317698  9562 net.cpp:454] relu3 <- conv3
I0112 23:54:06.317706  9562 net.cpp:397] relu3 -> conv3 (in-place)
I0112 23:54:06.317715  9562 net.cpp:150] Setting up relu3
I0112 23:54:06.317719  9562 net.cpp:157] Top shape: 100 64 25 25 (4000000)
I0112 23:54:06.317721  9562 net.cpp:165] Memory required for data: 308000400
I0112 23:54:06.317723  9562 layer_factory.hpp:77] Creating layer pool3
I0112 23:54:06.317731  9562 net.cpp:106] Creating Layer pool3
I0112 23:54:06.317734  9562 net.cpp:454] pool3 <- conv3
I0112 23:54:06.317739  9562 net.cpp:411] pool3 -> pool3
I0112 23:54:06.317773  9562 net.cpp:150] Setting up pool3
I0112 23:54:06.317787  9562 net.cpp:157] Top shape: 100 64 12 12 (921600)
I0112 23:54:06.317790  9562 net.cpp:165] Memory required for data: 311686800
I0112 23:54:06.317793  9562 layer_factory.hpp:77] Creating layer ip1
I0112 23:54:06.317806  9562 net.cpp:106] Creating Layer ip1
I0112 23:54:06.317809  9562 net.cpp:454] ip1 <- pool3
I0112 23:54:06.317816  9562 net.cpp:411] ip1 -> ip1
I0112 23:54:06.384320  9562 net.cpp:150] Setting up ip1
I0112 23:54:06.384356  9562 net.cpp:157] Top shape: 100 64 (6400)
I0112 23:54:06.384358  9562 net.cpp:165] Memory required for data: 311712400
I0112 23:54:06.384369  9562 layer_factory.hpp:77] Creating layer ip2
I0112 23:54:06.384385  9562 net.cpp:106] Creating Layer ip2
I0112 23:54:06.384390  9562 net.cpp:454] ip2 <- ip1
I0112 23:54:06.384400  9562 net.cpp:411] ip2 -> ip2
I0112 23:54:06.384493  9562 net.cpp:150] Setting up ip2
I0112 23:54:06.384500  9562 net.cpp:157] Top shape: 100 2 (200)
I0112 23:54:06.384502  9562 net.cpp:165] Memory required for data: 311713200
I0112 23:54:06.384515  9562 layer_factory.hpp:77] Creating layer loss
I0112 23:54:06.384521  9562 net.cpp:106] Creating Layer loss
I0112 23:54:06.384524  9562 net.cpp:454] loss <- ip2
I0112 23:54:06.384529  9562 net.cpp:454] loss <- label
I0112 23:54:06.384536  9562 net.cpp:411] loss -> loss
I0112 23:54:06.384548  9562 layer_factory.hpp:77] Creating layer loss
…
I0112 23:54:06.385141  9562 solver.cpp:181] Creating test net (#0) specified by net file: cifar10_quick_train_test.prototxt
I0112 23:54:06.385181  9562 net.cpp:322] The NetState phase (1) differed from the phase (0) specified by a rule in layer cifar
I0112 23:54:06.385416  9562 net.cpp:49] Initializing net from parameters: 
name: "CIFAR10_quick"
state {
  phase: TEST
}
layer {
  name: "cifar"
  type: "Data"
  top: "data"
  top: "label"
  include {
    phase: TEST
  }
  transform_param {
    mean_file: "mean.binaryproto"
  }
  data_param {
    source: "test_lmdb"
    batch_size: 100
    backend: LMDB
    prefetch: 50
  }
}
layer {
  name: "conv1"
  type: "Convolution"
  bottom: "data"
  top: "conv1"
  param {
    lr_mult: 1
  }
  param {
    lr_mult: 2
  }
  convolution_param {
    num_output: 32
    pad: 2
    kernel_size: 5
    stride: 1
    weight_filler {
      type: "gaussian"
      std: 0.0001
    }
    bias_filler {
      type: "constant"
    }
  }
}
layer {
  name: "pool1"
  type: "Pooling"
  bottom: "conv1"
  top: "pool1"
  pooling_param {
    pool: MAX
    kernel_size: 3
    stride: 2
  }
}
layer {
  name: "relu1"
  type: "ReLU"
  bottom: "pool1"
  top: "pool1"
}
layer {
  name: "conv2"
  type: "Convolution"
  bottom: "pool1"
  top: "conv2"
  param {
    lr_mult: 1
  }
  param {
    lr_mult: 2
  }
  convolution_param {
    num_output: 32
    pad: 2
    kernel_size: 5
    stride: 1
    weight_filler {
      type: "gaussian"
      std: 0.01
    }
    bias_filler {
      type: "constant"
    }
  }
}
layer {
  name: "relu2"
  type: "ReLU"
  bottom: "conv2"
  top: "conv2"
}
layer {
  name: "pool2"
  type: "Pooling"
  bottom: "conv2"
  top: "pool2"
  pooling_param {
    pool: AVE
    kernel_size: 3
    stride: 2
  }
}
layer {
  name: "conv3"
  type: "Convolution"
  bottom: "pool2"
  top: "conv3"
  param {
    lr_mult: 1
  }
  param {
    lr_mult: 2
  }
  convolution_param {
    num_output: 64
    pad: 2
    kernel_size: 5
    stride: 1
    weight_filler {
      type: "gaussian"
      std: 0.01
    }
    bias_filler {
      type: "constant"
    }
  }
}
layer {
  name: "relu3"
  type: "ReLU"
  bottom: "conv3"
  top: "conv3"
}
layer {
  name: "pool3"
  type: "Pooling"
  bottom: "conv3"
  top: "pool3"
  pooling_param {
    pool: AVE
    kernel_size: 3
    stride: 2
  }
}
layer {
  name: "ip1"
  type: "InnerProduct"
  bottom: "pool3"
  top: "ip1"
  param {
    lr_mult: 1
  }
  param {
    lr_mult: 2
  }
  inner_product_param {
    num_output: 64
    weight_filler {
      type: "gaussian"
      std: 0.1
    }
    bias_filler {
      type: "constant"
    }
  }
}
layer {
  name: "ip2"
  type: "InnerProduct"
  bottom: "ip1"
  top: "ip2"
  param {
    lr_mult: 1
  }
  param {
    lr_mult: 2
  }
  inner_product_param {
    num_output: 2
    weight_filler {
      type: "gaussian"
      std: 0.1
    }
    bias_filler {
      type: "constant"
    }
  }
}
layer {
  name: "accuracy"
  type: "Accuracy"
  bottom: "ip2"
  bottom: "label"
  top: "accuracy"
  include {
    phase: TEST
  }
}
layer {
  name: "loss"
  type: "SoftmaxWithLoss"
  bottom: "ip2"
  bottom: "label"
  top: "loss"
}
I0112 23:54:06.385547  9562 layer_factory.hpp:77] Creating layer cifar
I0112 23:54:06.386185  9562 net.cpp:106] Creating Layer cifar
I0112 23:54:06.386193  9562 net.cpp:411] cifar -> data
I0112 23:54:06.386204  9562 net.cpp:411] cifar -> label
I0112 23:54:06.386212  9562 data_transformer.cpp:25] Loading mean file from: mean.binaryproto
I0112 23:54:06.386708  9573 db_lmdb.cpp:38] Opened lmdb test_lmdb
I0112 23:54:06.387137  9562 data_layer.cpp:41] output data size: 100,3,100,100
I0112 23:54:06.400413  9562 net.cpp:150] Setting up cifar
I0112 23:54:06.400449  9562 net.cpp:157] Top shape: 100 3 100 100 (3000000)
I0112 23:54:06.400454  9562 net.cpp:157] Top shape: 100 (100)
I0112 23:54:06.400455  9562 net.cpp:165] Memory required for data: 12000400
I0112 23:54:06.400462  9562 layer_factory.hpp:77] Creating layer label_cifar_1_split
I0112 23:54:06.400480  9562 net.cpp:106] Creating Layer label_cifar_1_split
I0112 23:54:06.400485  9562 net.cpp:454] label_cifar_1_split <- label
I0112 23:54:06.400496  9562 net.cpp:411] label_cifar_1_split -> label_cifar_1_split_0
I0112 23:54:06.400506  9562 net.cpp:411] label_cifar_1_split -> label_cifar_1_split_1
I0112 23:54:06.400550  9562 net.cpp:150] Setting up label_cifar_1_split
I0112 23:54:06.400557  9562 net.cpp:157] Top shape: 100 (100)
I0112 23:54:06.400559  9562 net.cpp:157] Top shape: 100 (100)
I0112 23:54:06.400563  9562 net.cpp:165] Memory required for data: 12001200
I0112 23:54:06.400564  9562 layer_factory.hpp:77] Creating layer conv1
I0112 23:54:06.400580  9562 net.cpp:106] Creating Layer conv1
I0112 23:54:06.400583  9562 net.cpp:454] conv1 <- data
I0112 23:54:06.400591  9562 net.cpp:411] conv1 -> conv1
I0112 23:54:06.402040  9562 net.cpp:150] Setting up conv1
I0112 23:54:06.402052  9562 net.cpp:157] Top shape: 100 32 100 100 (32000000)
I0112 23:54:06.402056  9562 net.cpp:165] Memory required for data: 140001200
I0112 23:54:06.402070  9562 layer_factory.hpp:77] Creating layer pool1
I0112 23:54:06.402081  9562 net.cpp:106] Creating Layer pool1
I0112 23:54:06.402084  9562 net.cpp:454] pool1 <- conv1
I0112 23:54:06.402091  9562 net.cpp:411] pool1 -> pool1
I0112 23:54:06.402120  9562 net.cpp:150] Setting up pool1
I0112 23:54:06.402127  9562 net.cpp:157] Top shape: 100 32 50 50 (8000000)
I0112 23:54:06.402137  9562 net.cpp:165] Memory required for data: 172001200
I0112 23:54:06.402148  9562 layer_factory.hpp:77] Creating layer relu1
I0112 23:54:06.402155  9562 net.cpp:106] Creating Layer relu1
I0112 23:54:06.402158  9562 net.cpp:454] relu1 <- pool1
I0112 23:54:06.402164  9562 net.cpp:397] relu1 -> pool1 (in-place)
I0112 23:54:06.402170  9562 net.cpp:150] Setting up relu1
I0112 23:54:06.402174  9562 net.cpp:157] Top shape: 100 32 50 50 (8000000)
I0112 23:54:06.402176  9562 net.cpp:165] Memory required for data: 204001200
I0112 23:54:06.402179  9562 layer_factory.hpp:77] Creating layer conv2
I0112 23:54:06.402189  9562 net.cpp:106] Creating Layer conv2
I0112 23:54:06.402192  9562 net.cpp:454] conv2 <- pool1
I0112 23:54:06.402199  9562 net.cpp:411] conv2 -> conv2
I0112 23:54:06.405283  9562 net.cpp:150] Setting up conv2
I0112 23:54:06.405313  9562 net.cpp:157] Top shape: 100 32 50 50 (8000000)
I0112 23:54:06.405316  9562 net.cpp:165] Memory required for data: 236001200
I0112 23:54:06.405334  9562 layer_factory.hpp:77] Creating layer relu2
I0112 23:54:06.405349  9562 net.cpp:106] Creating Layer relu2
I0112 23:54:06.405354  9562 net.cpp:454] relu2 <- conv2
I0112 23:54:06.405361  9562 net.cpp:397] relu2 -> conv2 (in-place)
I0112 23:54:06.405370  9562 net.cpp:150] Setting up relu2
I0112 23:54:06.405374  9562 net.cpp:157] Top shape: 100 32 50 50 (8000000)
I0112 23:54:06.405375  9562 net.cpp:165] Memory required for data: 268001200
I0112 23:54:06.405378  9562 layer_factory.hpp:77] Creating layer pool2
I0112 23:54:06.405385  9562 net.cpp:106] Creating Layer pool2
I0112 23:54:06.405388  9562 net.cpp:454] pool2 <- conv2
I0112 23:54:06.405395  9562 net.cpp:411] pool2 -> pool2
I0112 23:54:06.405416  9562 net.cpp:150] Setting up pool2
I0112 23:54:06.405421  9562 net.cpp:157] Top shape: 100 32 25 25 (2000000)
I0112 23:54:06.405423  9562 net.cpp:165] Memory required for data: 276001200
I0112 23:54:06.405426  9562 layer_factory.hpp:77] Creating layer conv3
I0112 23:54:06.405442  9562 net.cpp:106] Creating Layer conv3
I0112 23:54:06.405447  9562 net.cpp:454] conv3 <- pool2
I0112 23:54:06.405454  9562 net.cpp:411] conv3 -> conv3
I0112 23:54:06.411412  9562 net.cpp:150] Setting up conv3
I0112 23:54:06.411445  9562 net.cpp:157] Top shape: 100 64 25 25 (4000000)
I0112 23:54:06.411448  9562 net.cpp:165] Memory required for data: 292001200
I0112 23:54:06.411468  9562 layer_factory.hpp:77] Creating layer relu3
I0112 23:54:06.411484  9562 net.cpp:106] Creating Layer relu3
I0112 23:54:06.411490  9562 net.cpp:454] relu3 <- conv3
I0112 23:54:06.411497  9562 net.cpp:397] relu3 -> conv3 (in-place)
I0112 23:54:06.411507  9562 net.cpp:150] Setting up relu3
I0112 23:54:06.411510  9562 net.cpp:157] Top shape: 100 64 25 25 (4000000)
I0112 23:54:06.411512  9562 net.cpp:165] Memory required for data: 308001200
I0112 23:54:06.411515  9562 layer_factory.hpp:77] Creating layer pool3
I0112 23:54:06.411522  9562 net.cpp:106] Creating Layer pool3
I0112 23:54:06.411525  9562 net.cpp:454] pool3 <- conv3
I0112 23:54:06.411531  9562 net.cpp:411] pool3 -> pool3
I0112 23:54:06.411553  9562 net.cpp:150] Setting up pool3
I0112 23:54:06.411558  9562 net.cpp:157] Top shape: 100 64 12 12 (921600)
I0112 23:54:06.411561  9562 net.cpp:165] Memory required for data: 311687600
I0112 23:54:06.411563  9562 layer_factory.hpp:77] Creating layer ip1
I0112 23:54:06.411573  9562 net.cpp:106] Creating Layer ip1
I0112 23:54:06.411576  9562 net.cpp:454] ip1 <- pool3
I0112 23:54:06.411583  9562 net.cpp:411] ip1 -> ip1
I0112 23:54:06.477922  9562 net.cpp:150] Setting up ip1
I0112 23:54:06.477958  9562 net.cpp:157] Top shape: 100 64 (6400)
I0112 23:54:06.477962  9562 net.cpp:165] Memory required for data: 311713200
I0112 23:54:06.477972  9562 layer_factory.hpp:77] Creating layer ip2
I0112 23:54:06.477988  9562 net.cpp:106] Creating Layer ip2
I0112 23:54:06.477993  9562 net.cpp:454] ip2 <- ip1
I0112 23:54:06.478003  9562 net.cpp:411] ip2 -> ip2
I0112 23:54:06.478088  9562 net.cpp:150] Setting up ip2
I0112 23:54:06.478096  9562 net.cpp:157] Top shape: 100 2 (200)
I0112 23:54:06.478106  9562 net.cpp:165] Memory required for data: 311714000
I0112 23:54:06.478124  9562 layer_factory.hpp:77] Creating layer ip2_ip2_0_split
I0112 23:54:06.478132  9562 net.cpp:106] Creating Layer ip2_ip2_0_split
I0112 23:54:06.478134  9562 net.cpp:454] ip2_ip2_0_split <- ip2
I0112 23:54:06.478140  9562 net.cpp:411] ip2_ip2_0_split -> ip2_ip2_0_split_0
I0112 23:54:06.478147  9562 net.cpp:411] ip2_ip2_0_split -> ip2_ip2_0_split_1
I0112 23:54:06.478169  9562 net.cpp:150] Setting up ip2_ip2_0_split
I0112 23:54:06.478174  9562 net.cpp:157] Top shape: 100 2 (200)
I0112 23:54:06.478178  9562 net.cpp:157] Top shape: 100 2 (200)
I0112 23:54:06.478179  9562 net.cpp:165] Memory required for data: 311715600
I0112 23:54:06.478183  9562 layer_factory.hpp:77] Creating layer accuracy
I0112 23:54:06.478193  9562 net.cpp:106] Creating Layer accuracy
I0112 23:54:06.478196  9562 net.cpp:454] accuracy <- ip2_ip2_0_split_0
I0112 23:54:06.478201  9562 net.cpp:454] accuracy <- label_cifar_1_split_0
I0112 23:54:06.478207  9562 net.cpp:411] accuracy -> accuracy
…
